v1/discriminator.pth (torch, 807104 bytes, 3 tensors)

model.0.weight f4 [256, 784]
0	0x3ea97aa6	0.33101386
1	0x3ebd9435	0.37027135
2	0x3e9187bf	0.2842388
3	0x3ec1df4c	0.37865674
4	0x3e8cbb53	0.27486667
5	0x3e92f883	0.28705224
6	0x3ec98342	0.39357954
7	0x3e4a7683	0.19771771
8	0xbe4b5dac	-0.19859952
9	0x3dcc5020	0.0997622
10	0xbe4cc3bd	-0.19996543
11	0x3f542bcf	0.82879347
12	0xbf27ab1b	-0.6549546
13	0x3f00a1b0	0.50246716
14	0x3e9e1ff3	0.3088375
15	0xbfbbff94	-1.4687371
16	0x3f3dda3c	0.74161124
17	0xbf4ea8fd	-0.80726606
18	0x3e1da936	0.1539658
19	0xbf236469	-0.6382509
20	0xbe2aeca4	-0.16691834
21	0x3e6326f8	0.22182834
22	0x3e9195d8	0.28434634
23	0x3e867cf5	0.2626721
24	0x3e1fba08	0.15598309
25	0x3e3d8793	0.18508749
26	0x3ea15a38	0.31514144
27	0x3eb57d0c	0.35446966
28	0x3ea98488	0.33108926
29	0x3ed89589	0.42301586
30	0x3e9d7ad2	0.30757767
31	0x3ea4fd0e	0.32224315
32	0x3e496ea3	0.19671111
33	0x3dddd140	0.10830927
34	0xbe89ead4	-0.26936972
35	0x3e7ff60b	0.24996202
36	0xbd3573ba	-0.04429982
37	0xbf218472	-0.6309272
38	0x3f249030	0.6428251
39	0xbe9d136f	-0.3067889
40	0xbd8a89b3	-0.06764545
41	0x3e46992f	0.19394372
42	0x3e880aad	0.26570645
43	0x3dffd82f	0.124924056
44	0xbf55bab6	-0.83488023
45	0xbe8986d7	-0.26860687
46	0x3ca432be	0.020043727
47	0x3e57fbf2	0.21092203
48	0xbee1d140	-0.44104958
49	0xbed1c1a4	-0.4096805
50	0x3dcd659a	0.100291446
51	0x3ecd50b3	0.4010063
52	0x3e404edc	0.18780082
53	0x3eb28513	0.34867153
54	0x3e8ac4c8	0.27103257
55	0x3eba1dc2	0.36350828
56	0x3eac908a	0.33704025
57	0x3eb41939	0.35175493
58	0x3e940b67	0.2891495
59	0x3e1f3a56	0.15549597
60	0x3e840c6d	0.2579073
61	0x3dde2e8b	0.10848721
62	0x3d92014d	0.07129154
63	0x3f211c90	0.6293421
64	0x3f22fe72	0.636695
65	0x3f80f029	1.0073291
66	0xbf1236f0	-0.5711508
67	0x3cf16710	0.02946809
68	0x3eb7b2b5	0.3587853
69	0x3e3ac526	0.18239269
70	0xbf48e010	-0.7846689
71	0x3f3fa480	0.7486038
72	0x3e765753	0.24056749
73	0xbe708abf	-0.23490427
74	0xbf26bf70	-0.6513586
75	0xbefbfed6	-0.49217862
76	0x3f06e6fd	0.5269621
77	0xbe129942	-0.14316276
78	0xbec36fd5	-0.3817126
79	0x3da902ef	0.08252513
80	0x3e741ade	0.23838374
81	0x3e4f3490	0.20234895
82	0x3e94306a	0.28943187
83	0x3e3800d9	0.17969073
84	0x3ec29af0	0.38008833
85	0x3ea82884	0.3284341
86	0x3e1d99a0	0.15390635
87	0x3d666466	0.05624809
88	0x3e64d94e	0.2234852
89	0x3e53dd11	0.20689799
90	0x3e51a727	0.2047392
91	0x3f57bb9a	0.8427063
92	0x3caf18e8	0.02137418
93	0x3eae8652	0.34086853
94	0xbd2ca18d	-0.042146254
95	0x3d9a00ef	0.07519709
96	0x3e2f4dda	0.17119542
97	0xbf43928d	-0.76395494
98	0x3f1a1445	0.6018718
99	0xbebe44ed	-0.3716196
100	0x3e8a299a	0.26984864
101	0x3d2ed3d7	0.042682495
102	0xbebd4e9c	-0.36974037
103	0x3dcf7d3c	0.101313084
104	0x3d90f6c3	0.07078316
105	0x3e91620c	0.28395116
106	0xbedcb3b2	-0.43105847
107	0x3ee64372	0.44973332
108	0x3eb87531	0.3602691
109	0x3e2ceb71	0.16886689
110	0x3ec356b9	0.38152102
111	0x3e49a07a	0.19690123
112	0x3e70210e	0.2345011
113	0x3e3d1f98	0.18469083
114	0x3ddb2c9b	0.10701867
115	0x3cbe8c5c	0.023260288
116	0x3ef34223	0.47511396
117	0x3f74357d	0.95394117
118	0x3d843094	0.06454578
119	0xbe472746	-0.19448575
120	0xbdb2c92d	-0.087297775
121	0xbf8fc785	-1.1232764
122	0x3e916ccf	0.28403327
123	0x3c73bc04	0.014876369
124	0xbe9595e3	-0.29215917
125	0x3f32bb27	0.6981682
126	0xbea55d30	-0.3229766
127	0x3f33d4b0	0.7024641
128	0xbd570fe2	-0.05250538
129	0x3f01da2a	0.50723517
130	0xbe63c0dd	-0.2224154
131	0x3e661420	0.22468615
132	0xbd9da447	-0.07697349
133	0xbe8a04e6	-0.26956862
134	0xbeed10cc	-0.46301877
135	0xbc852035	-0.01625071
136	0xbce83430	-0.028345197
137	0xbdbb28fe	-0.09138678
138	0xbb66e31a	-0.0035230578
139	0x3eb8e94f	0.361155
140	0x3e7bac63	0.24577479
141	0x3e17929a	0.14802018
142	0x3cabdc1d	0.020978982
143	0x3dc9af5f	0.098479025
144	0x3d942fe3	0.07235696
145	0x3d2baedd	0.04191481
146	0xbdf39d9e	-0.118952975
147	0xbe998144	-0.29981434
148	0xbeced1ac	-0.40394342
149	0xbe324bd9	-0.17411746
150	0x3e221039	0.15826501
151	0xbd98bd49	-0.07457978
152	0x3f3c87a2	0.7364446
153	0xbefe5ae6	-0.49678725
154	0x3f1d5494	0.6145718
155	0xbfc02ade	-1.5013082
156	0x3f6383b3	0.8887283
157	0xbf871944	-1.0554585
158	0x3e92fef7	0.28710148
159	0xbe8f86f1	-0.2803264
160	0x3ec06699	0.37578276
161	0xbea93b40	-0.33053017
162	0xbd23d541	-0.039998297
163	0x3ebf0d2c	0.37314737
164	0x3ed0307c	0.4066199
165	0x3d3ed71b	0.04659186
166	0xbce96925	-0.02849252
167	0x3e797602	0.24361423
168	0x3ea75939	0.3268526
169	0x3e2c8757	0.16848503
170	0xbe0911b8	-0.13385665
171	0xbd72fb0a	-0.05932144
172	0x3f06bb03	0.5262911
173	0x3f051445	0.51984054
174	0x3d332f9c	0.043746576
175	0xbde87588	-0.11350542
176	0x3eb44479	0.3520849
177	0x3eb39236	0.35072488
178	0xbee52c0c	-0.44760168
179	0x3ebb8a53	0.3662897
180	0xbe70bb0d	-0.23508854
181	0xbe50fdd2	-0.20409325
182	0xbe6b5885	-0.22982986
183	0x3f5ab8f9	0.85438496
184	0x3d80c8db	0.0628831
185	0x3ecec171	0.4038196
186	0xbc322ef8	-0.010875456
187	0xbd8650bf	-0.0655837
188	0xbf11155e	-0.5667323
189	0x3f6cfd83	0.9257433
190	0xbf8cb22f	-1.0991877
191	0xbf18fa4c	-0.5975692
192	0xbec6900b	-0.3878177
193	0xbdc489bb	-0.095965825
194	0xbe2d3628	-0.1691519
195	0x3df6ae3d	0.12044952
196	0x3ec96e8e	0.3934216
197	0x3e580c15	0.21098359
198	0xbb8ed714	-0.0043591354
199	0x3e17e41f	0.14833115
200	0x3e624ae5	0.22098882
201	0xbe8e3b80	-0.2777977
202	0xbf3a583e	-0.72790897
203	0x3eb1303e	0.34607118
204	0xbe63c331	-0.22242428
205	0xbde07b38	-0.10961002
206	0x3e873867	0.2641022
207	0xbec45a09	-0.3834994
208	0x3e0b9583	0.13631253
209	0x3e2257f0	0.15853858
210	0xbeefd447	-0.46841642
211	0xbd8d2a5d	-0.06892846
212	0xbef85ea4	-0.48509705
213	0x3ead80f8	0.33887458
214	0x3e8887ff	0.26666257
215	0xbf99b30a	-1.2007763
216	0x3f2e5007	0.6809086
217	0x3e0669a6	0.13126239
218	0x3db737d8	0.08946198
219	0x3c6c49c7	0.014421887
220	0x3e41fade	0.18943354
221	0xbe9a8a2d	-0.30183545
222	0xbf080c95	-0.531442
223	0x3dacf8cd	0.084458925
224	0x3ebd6abe	0.369955
225	0xbce2233b	-0.02760469
226	0x3e09c96c	0.13455743
227	0x3e68f914	0.22751266
228	0x3f6e60ca	0.9311644
229	0x3ed36db6	0.4129464
230	0x3c7f4243	0.015579763
231	0x3d610cee	0.05494397
232	0x3e1f20e5	0.15539892
233	0x3e78246d	0.24232645
234	0xbeb26817	-0.3484504
235	0x3f124099	0.5712982
236	0xbf65618a	-0.8960196
237	0x3d4a709e	0.049423806
238	0xbf484e20	-0.7824421
239	0x3ed3d161	0.4137068
240	0xbd2738bb	-0.040825587
241	0xbebb6099	-0.36597136
242	0x3f53d62e	0.8274869
243	0x3ed71ecd	0.42015687
244	0xbc9290f9	-0.017891394
245	0xbd90e7b3	-0.07075443
246	0x3f3396a1	0.70151716
247	0xbfdb25de	-1.7120931
248	0x3f855028	1.0415087
249	0xbe8af007	-0.2713625
250	0x3e44552d	0.19173117
251	0xbe285cc6	-0.1644164
252	0x3ec9ff64	0.3945266
253	0x3e4b00a6	0.19824466
254	0x3eaaf22e	0.33387893
255	0x3e358792	0.17727497

model.0.bias f4 [256]
0	0x3fb9f05b	1.4526476
1	0xbfcf23d1	-1.6182805
2	0x3fa321e4	1.2744718
3	0x403d0816	2.9536185
4	0xc042c57a	-3.043303
5	0xc0b55709	-5.6668744
6	0x400133d9	2.0187895
7	0x4062b427	3.5422456
8	0x3c5b787c	0.013395425
9	0x3fc21fdb	1.5165972
10	0xbe48c497	-0.19606243
11	0xc0887421	-4.264176
12	0x3fee86b4	1.8634858
13	0x3f8f0a29	1.1174976
14	0x3f489140	0.78346634
15	0x3f30e0ed	0.6909321
16	0x4025dd95	2.5916493
17	0x400330a2	2.0498433
18	0xc0a4d736	-5.151271
19	0x3e08e120	0.13367128
20	0x3ff7b479	1.9351951
21	0x3f5dc707	0.86631817
22	0x3e9b0f06	0.302849
23	0x3ec21271	0.37904695
24	0xc0718c58	-3.774191
25	0xbf9c9b90	-1.2234974
26	0x3e3458e4	0.17612034
27	0xbd0fac03	-0.035076153
28	0xc006cf11	-2.1063883
29	0x3d001744	0.031272188
30	0x3fc87208	1.56598
31	0xbe374827	-0.17898618
32	0x4025de65	2.591699
33	0x3fc860aa	1.56545
34	0x3fa5f379	1.2964927
35	0x3e143833	0.14474563
36	0x401aa10b	2.4160793
37	0xbfa2428a	-1.2676556
38	0x40674c01	3.614014
39	0xc0e7c30a	-7.2425585
40	0xc02a32f6	-2.6593604
41	0x3e94adc4	0.29038823
42	0x4026d5fb	2.6068103
43	0xbfd2116a	-1.6411564
44	0xbb9d165d	-0.0047939257
45	0x3f88f139	1.0698615
46	0xbd06766d	-0.032827783
47	0x40070886	2.1098952
48	0x3fe20ada	1.7659562
49	0xc1107a54	-9.029865
50	0x3dc4a6fb	0.096021615
51	0x4002ee6f	2.0458028
52	0x40118ff1	2.2744105
53	0xc0a1f2ce	-5.0608892
54	0x3e002067	0.1251236
55	0xbff9691f	-1.9485205
56	0xc03c0ec4	-2.9384012
57	0xbe444a04	-0.1916886
58	0xc06815bc	-3.6263266
59	0x3e4d60da	0.20056477
60	0xc14f094d	-12.939771
61	0x3f7a7de1	0.97848326
62	0x402dc8bc	2.7153769
63	0x406101d4	3.5157366
64	0x3e4c73d3	0.19966058
65	0xc03aaeb8	-2.916914
66	0xbaf3417e	-0.0018558947
67	0x3e485521	0.19563724
68	0x3fa336c9	1.2751094
69	0x3fa11176	1.2583454
70	0xc13c0c23	-11.752963
71	0x3e98e07d	0.2985877
72	0x3fc042d4	1.5020394
73	0x3f90edb6	1.1322544
74	0x3f8279c7	1.0193413
75	0x40251049	2.579119
76	0xbd072fb3	-0.033004474
77	0xbfdca17a	-1.7236779
78	0x3fc43e5e	1.5331533
79	0xc14822f3	-12.508533
80	0x406ca005	3.6972668
81	0x4014792e	2.3198962
82	0xc00cdb3e	-2.2008815
83	0x4024fd49	2.5779593
84	0xbf463f1b	-0.7744004
85	0xc01fe422	-2.4982991
86	0x3f2e4770	0.68077755
87	0x4027c3fb	2.6213367
88	0x3f8e2c29	1.1107227
89	0x3f27c262	0.6553098
90	0x4046c410	3.1057167
91	0x4000f8c1	2.0151827
92	0xbd0ebcdf	-0.03484809
93	0x3f158990	0.5841303
94	0xbd0cb131	-0.03434867
95	0x3f309ece	0.68992317
96	0xbff5f77e	-1.9216154
97	0x3d5ae044	0.053436533
98	0x3f97a1e9	1.1846286
99	0x3e8938a3	0.26801023
100	0xbcdbbc18	-0.026823089
101	0xbfd19e8d	-1.6376511
102	0x3f038ca8	0.513865
103	0x3f02b80b	0.5106208
104	0x4031208b	2.7676113
105	0xc07dc64b	-3.9652278
106	0xbff479c5	-1.9099661
107	0xbd573a09	-0.05254558
108	0xbf822fb9	-1.0170814
109	0xbd609a99	-0.054834936
110	0xc1218531	-10.095017
111	0xc1052409	-8.321298
112	0x3f311c0a	0.6918341
113	0xc0c6e675	-6.215632
114	0x3f32c077	0.6982493
115	0x3f1edce9	0.6205583
116	0x3fef3a50	1.868967
117	0xc0d6a643	-6.7077956
118	0xbf9a318c	-1.204637
119	0xbed5051f	-0.4160547
120	0x3f948ef9	1.1606132
121	0xbfca0024	-1.5781293
122	0x3f5d14c0	0.86359787
123	0xbd228cb1	-0.039684955
124	0xc0703efb	-3.753844
125	0xc00a919f	-2.165138
126	0x3fc17f31	1.5116941
127	0x4040cb68	3.012415
128	0xbcd42811	-0.025898011
129	0x3fec6708	1.8468943
130	0x401faf45	2.4950726
131	0xc1078fb3	-8.472583
132	0xbd1634d8	-0.03667149
133	0x3f44b02d	0.7683132
134	0x3f96ac11	1.177126
135	0x401bca5e	2.4342265
136	0x3f772417	0.96539444
137	0x3ecf75d3	0.4051958
138	0xbf7d2129	-0.98878723
139	0x3ffeaabb	1.9895853
140	0x3ff6e22f	1.9287776
141	0xc0f35ecf	-7.6053233
142	0x3f8465f8	1.0343618
143	0xc02d2629	-2.705454
144	0x400c245d	2.1897194
145	0x3f93ae5f	1.1537589
146	0xbf93f1f3	-1.1558212
147	0x3d1285a7	0.035771992
148	0xbb9aedf2	-0.0047280723
149	0xc0061504	-2.0950327
150	0x3fc6ee9e	1.554157
151	0xbcd4133d	-0.02588808
152	0x3f2b9c61	0.6703549
153	0x3fe79195	1.8091303
154	0x3de03391	0.109473355
155	0x3f0084d7	0.502027
156	0xbf0ac710	-0.54209995
157	0xc0bb16f6	-5.846553
158	0xc0d42faa	-6.6308184
159	0x4009ab7e	2.151092
160	0xbd779ae3	-0.060450446
161	0x3ed9790b	0.4247516
162	0x3e32a23f	0.17444704
163	0x406782b0	3.6173515
164	0x3fa1d2f9	1.2642509
165	0x3eb81bc5	0.35958686
166	0xbd333530	-0.043751895
167	0xbd89e3a1	-0.0673287
168	0xbc55c6cc	-0.013047885
169	0x3ec5a4da	0.38602334
170	0x401a94ea	2.415339
171	0x3fa890a3	1.316914
172	0x3e370127	0.17871533
173	0xbd8b52ad	-0.068028785
174	0xc0ad8a61	-5.423142
175	0xbd7db807	-0.06194308
176	0x3fe65409	1.7994395
177	0x3e328d40	0.17436695
178	0xbfcdc5a9	-1.6075946
179	0x400102e9	2.0158026
180	0x40020d54	2.0320635
181	0x3f70f76a	0.94127524
182	0xc0f7b713	-7.741098
183	0x4098b2d7	4.771831
184	0x406c5add	3.6930459
185	0xc03ecc63	-2.9812248
186	0x3fcd894f	1.6057528
187	0x3fc3e81a	1.5305207
188	0x3f14e909	0.58168083
189	0xc1242efa	-10.261469
190	0xbd4b1a77	-0.049585786
191	0xbfc830de	-1.5639913
192	0x3fc709b7	1.554984
193	0xbd55a0ac	-0.05215518
194	0xbf8fb611	-1.1227437
195	0x3d302b85	0.043010253
196	0x4025cf41	2.5907748
197	0x3f386872	0.7203437
198	0xc10c65b0	-8.774826
199	0xc1530df5	-13.1909075
200	0x3fb263f6	1.3936756
201	0x4055af72	3.3388333
202	0xc0d2838f	-6.5785594
203	0x3fc9029f	1.5703925
204	0x3fc9bde6	1.5761077
205	0x3fdd87cb	1.7307066
206	0xc0819834	-4.0498295
207	0x3fbae36c	1.4600654
208	0x3e41c5a5	0.18923052
209	0x3e1858fc	0.14877695
210	0x4009d44c	2.1535826
211	0x405bddaa	3.4354043
212	0x3f035bb7	0.5131182
213	0xbf88d5ad	-1.0690209
214	0x3fb945ee	1.4474466
215	0xbfada60b	-1.3566297
216	0x400e6d3d	2.2254174
217	0xbe01865d	-0.12648912
218	0xbba65264	-0.0050757397
219	0xc0539be3	-3.3063896
220	0x3f94ca57	1.1624249
221	0x3fb6fe08	1.4296274
222	0x3f29171f	0.66050905
223	0x40142c2c	2.315196
224	0x3f80b804	1.0056157
225	0xbf10dbac	-0.5658519
226	0x3f9b6967	1.2141541
227	0x3f77768b	0.9666526
228	0x3fdbef8f	1.7182482
229	0x3caaa0dd	0.020828659
230	0x3e6fea56	0.23429236
231	0xbf5de0a1	-0.8667088
232	0x408f268d	4.473456
233	0x3f8058a1	1.0027047
234	0x3e70e725	0.23525675
235	0x3f880155	1.0625407
236	0x3fe6176c	1.7975898
237	0x3ce7c8a3	0.028293913
238	0x3eb2ac0b	0.34896883
239	0x3e95bf75	0.29247633
240	0xbd400791	-0.046882216
241	0xc16d0028	-14.812538
242	0x3fb16edc	1.3861957
243	0x3f9b9788	1.2155619
244	0x3ff060e7	1.8779572
245	0xc0221054	-2.5322466
246	0x40199fdd	2.4003823
247	0x3eb120be	0.34595293
248	0xbdd018ba	-0.10160966
249	0x4009bce2	2.1521535
250	0xbfd7198d	-1.6804672
251	0x401a2782	2.4086614
252	0x3f53e619	0.82772976
253	0x400e1dde	2.220573
254	0x3e86051e	0.2617578
255	0x3fd1b816	1.6384304

model.3.weight f4 [1, 256]
0	0xbd2b25e4	-0.041784182
1	0xbe3569f2	-0.17716196
2	0xbdd57f79	-0.10424704
3	0xbda8556f	-0.0821942
4	0xbcfc7c4f	-0.030820994
5	0x3d52781d	0.05138408
6	0xbde99a65	-0.114064015
7	0xbd7ef866	-0.06224861
8	0x3d95581d	0.07292197
9	0xbd483f78	-0.048888654
10	0x3c865f4d	0.016402865
11	0x3d1a06f3	0.037604284
12	0xbd776037	-0.060394492
13	0xbd2cbe4a	-0.04217366
14	0xbd8bf96f	-0.06834685
15	0xbe9c9070	-0.30578947
16	0xbdb78530	-0.089609504
17	0xbda37e56	-0.07983081
18	0x3caebb59	0.021329569
19	0xbeb4242b	-0.35183844
20	0xbd31e049	-0.043426786
21	0x3d553d81	0.052060608
22	0xbe584e11	-0.2112353
23	0xbec1023a	-0.3769701
24	0x3d904211	0.07043851
25	0xbe2baf27	-0.16766034
26	0xbd53c84d	-0.051704694
27	0xbcc341ce	-0.023835089
28	0x3d5deec0	0.054182768
29	0x3d05e5ab	0.03268973
30	0xbd415658	-0.047201484
31	0x3d0e575c	0.03475128
32	0xbdf2a270	-0.11847389
33	0xbdb559d2	-0.088550225
34	0xbd30e06f	-0.043182787
35	0xbd68f4c8	-0.056874067
36	0xbd6c15c6	-0.057637952
37	0x3c969a10	0.01838401
38	0xbd46109e	-0.04835569
39	0x3d1305c2	0.035894163
40	0x3dc30160	0.09521747
41	0xbdca121f	-0.098667376
42	0xbdc6c33f	-0.09705209
43	0x3e89ce6b	0.26915297
44	0xbc99efef	-0.018791167
45	0xbd977db4	-0.07397023
46	0xbc8d4b24	-0.017247744
47	0xbdbf4f3a	-0.09341283
48	0xbdb1962d	-0.08671222
49	0x3cdb4f36	0.02677117
50	0xbcca9622	-0.024729792
51	0xbdb987b9	-0.0905909
52	0xbd36e6c2	-0.04465366
53	0x3c264193	0.01014747
54	0xbd0f9b85	-0.035060424
55	0xbdff1860	-0.12455821
56	0xbd806d42	-0.06270839
57	0xbd10295e	-0.0351957
58	0x3d3c71e8	0.046007067
59	0xbc20b9a5	-0.009809886
60	0x3cfdbaee	0.030972924
61	0xbe0fb1f0	-0.14032722
62	0xbda0ffa1	-0.07861257
63	0xbda7c04d	-0.08190975
64	0xbd13b3b5	-0.036060054
65	0x3c6f8828	0.0146198645
66	0xbcb0058f	-0.021487026
67	0xbd69bf89	-0.057067428
68	0xbbfb0147	-0.0076600644
69	0xbe5254f1	-0.20540215
70	0x3d2005ef	0.03906816
71	0xbd895ffd	-0.067077614
72	0xbdf05a84	-0.117360145
73	0xbdcb253a	-0.0991921
74	0xbdd95ab8	-0.10613006
75	0xbd48a069	-0.048981104
76	0xbb286af4	-0.0025698515
77	0xbe5d407f	-0.21606635
78	0xbca4f701	-0.020137312
79	0x3d0db637	0.0345976
80	0xbdd7f8a0	-0.10545468
81	0xbd9072b5	-0.07053129
82	0xbe2f6656	-0.17128882
83	0xbd13aad6	-0.036051594
84	0xbe03052d	-0.12794943
85	0xbcc70a40	-0.02429688
86	0x3afe95ae	0.001942327
87	0xbd65e524	-0.05612673
88	0xbd4f26ec	-0.05057423
89	0xbdcccd4d	-0.100000955
90	0xbd4f55d4	-0.05061896
91	0xbbbb65bc	-0.005718915
92	0xbcb62602	-0.02223492
93	0xbd0794f8	-0.033101052
94	0xbbb08dbe	-0.0053879907
95	0xbdf0f4a6	-0.11765413
96	0x3cb4b25e	0.022057708
97	0xbd0907ae	-0.03345459
98	0xbddccde1	-0.10781456
99	0xbdb40f77	-0.08792012
100	0xbcd47bfd	-0.025938028
101	0xbe7f518a	-0.24933448
102	0xbdb80cc6	-0.08986811
103	0xbdbdfe25	-0.0927699
104	0xbdc79a6b	-0.0974625
105	0x3d5e3c5b	0.05425678
106	0xbe0a3d48	-0.1349994
107	0xbc43c756	-0.011949381
108	0x3c96907e	0.018379446
109	0xbc6a5af5	-0.014303912
110	0x3cfe4053	0.031036532
111	0x3d4f5ffe	0.050628655
112	0x3c9672ee	0.01836535
113	0x3cd49b86	0.025953066
114	0xbe1c5a77	-0.15268885
115	0x3d25f247	0.040514257
116	0xbd95aca6	-0.07308321
117	0x3d42a005	0.047515888
118	0xbde53bbb	-0.11193033
119	0xbe1917c2	-0.14950469
120	0xbd6cd6d7	-0.057822075
121	0xbe307304	-0.17231375
122	0xbdcca972	-0.09993257
123	0xbc0cd152	-0.008594828
124	0x3c3db3eb	0.01157854
125	0x3d7870b9	0.060654376
126	0xbd246036	-0.040130816
127	0xbd58ae13	-0.052900385
128	0xbd0d98ba	-0.03456948
129	0xbdeefab2	-0.1166891
130	0xbd01f8fd	-0.031731594
131	0x3d0ff2dd	0.03514372
132	0xbce5fb74	-0.028074004
133	0xbe49c1b6	-0.19702801
134	0xbda71e3c	-0.081600636
135	0xbc8e4e3d	-0.017371291
136	0xbe1c4e9c	-0.15264362
137	0xbdf14583	-0.117808364
138	0x3d5196c8	0.051169187
139	0xbd42df21	-0.047576074
140	0xbd3941a3	-0.04522861
141	0x3d4754c5	0.048664827
142	0xbd8a1c68	-0.06743699
143	0x3d3d792d	0.04625814
144	0xbe2a3bf8	-0.16624439
145	0xbe054279	-0.13013639
146	0x3d192e1d	0.037397493
147	0xbe1a696e	-0.1507928
148	0xbd2eac21	-0.042644624
149	0xbdc84280	-0.09778309
150	0xbdb56dc4	-0.08858827
151	0xbd206dfe	-0.039167397
152	0xbdd29b5e	-0.1028354
153	0xbe33386f	-0.17501996
154	0xbe800e88	-0.25011086
155	0xbdede265	-0.11615447
156	0xbe22d1fe	-0.15900418
157	0x3d8dd51c	0.06925413
158	0x3d0b0a2c	0.033945248
159	0xbd9c652e	-0.07636486
160	0xbd26dbd1	-0.040736977
161	0xbdf33705	-0.118757285
162	0xbda67af3	-0.081289195
163	0xbcd0291b	-0.025410226
164	0xbd8d2651	-0.06892074
165	0xbd72452e	-0.059148006
166	0xbbbf4039	-0.0058365134
167	0xbc89f41f	-0.016840039
168	0xbe4b1233	-0.19831161
169	0xbe426b85	-0.18986328
170	0xbdf6c07a	-0.12048431
171	0xbd7bc7fe	-0.061470024
172	0xbd4663e2	-0.0484351
173	0xbc245171	-0.010029183
174	0x3d121a3a	0.035669543
175	0xbcbe2c8c	-0.023214601
176	0xbe68dd1b	-0.22740595
177	0xbdd4f8d1	-0.103990205
178	0x3d47ed0c	0.04881005
179	0xbc7fe8cf	-0.015619471
180	0xbdb2af66	-0.08724861
181	0x3d0376fd	0.032095898
182	0x3c930e49	0.017951148
183	0xbc39590e	-0.011312736
184	0xbcccfbd9	-0.025022434
185	0x3d337d79	0.043820832
186	0xbd84671d	-0.0646498
187	0xbdafce2b	-0.08584245
188	0x3cc766ba	0.024340976
189	0x3d011ca4	0.031521454
190	0xbce1bfd3	-0.02755729
191	0x3d03192d	0.03200643
192	0xbd7e4dee	-0.06208604
193	0xbc50e68c	-0.012750279
194	0xbe054b3f	-0.13016985
195	0xbd694d2f	-0.056958374
196	0xbd6ab719	-0.05730352
197	0xbdee9767	-0.116499715
198	0x3d0e2a83	0.03470851
199	0x3d242476	0.040073834
200	0xbd9b0ec9	-0.075711794
201	0xbd10cc99	-0.03535137
202	0x3d1bc526	0.038029812
203	0x3be55293	0.006998369
204	0xbd50b118	-0.05095014
205	0xbda7fa68	-0.08202058
206	0x3c94653e	0.018114682
207	0xbd571222	-0.052507527
208	0xbd9e37de	-0.077254996
209	0x3d02eac1	0.03196216
210	0xbd8d37ae	-0.06895386
211	0xbd8c12d2	-0.06839527
212	0xbda6c6e3	-0.081434034
213	0x3d05c8c6	0.032662176
214	0xbde9fd34	-0.11425248
215	0xbe3120c1	-0.17297651
216	0xbde22ae0	-0.11043334
217	0x3cbef452	0.02330986
218	0xbc904c84	-0.01761461
219	0x3c9513ab	0.018197855
220	0xbd82ce6d	-0.06387029
221	0xbe0694d8	-0.13142717
222	0xbe329d18	-0.17442739
223	0xbda62111	-0.08111776
224	0xbe6ec2e9	-0.2331654
225	0x3df9f086	0.12204079
226	0x3d352372	0.044223256
227	0xbd84ae4f	-0.06478559
228	0xbd4f200c	-0.05056767
229	0x3e06efb5	0.13177378
230	0xbeae9c66	-0.34103698
231	0x3d05721a	0.03257952
232	0xbd017771	-0.03160805
233	0xbe08db7d	-0.13364978
234	0xbdb06bee	-0.08614336
235	0x3d42f616	0.047597967
236	0xbdc76fce	-0.09738122
237	0x3c2d60fc	0.010582205
238	0xbdc6ea21	-0.09712625
239	0x3d800bfe	0.06252287
240	0x3bb431c7	0.005499098
241	0x3d7feb46	0.062480234
242	0xbdc5692a	-0.09639199
243	0xbd195517	-0.037434664
244	0xbd9eadc4	-0.07747987
245	0x3ccf7998	0.025326535
246	0xbdab13ab	-0.08353361
247	0xbdafde54	-0.085873276
248	0x3dddfb28	0.1083892
249	0xbd843aa0	-0.06456494
250	0xbe9ff56c	-0.3124193
251	0xbe20ac84	-0.1569081
252	0xbe5238f6	-0.20529541
253	0xbdb6a2be	-0.08917759
254	0xbdd525ef	-0.10407626
255	0xbdfb3690	-0.12266266
