v1/generator.pth (torch, 874656 bytes, 4 tensors)

model.0.weight f4 [256, 64]
000000 35 9f 8f 3e 75 83 5d be c2 0b 01 3f d1 c6 52 bd
       0.28051153 -0.21632178 0.50408566 -0.051459137
000010 04 75 0f be 3f 6b 8e bb a7 f1 bb 3c 9d 1f 8a 3e
       -0.14009482 -0.004346281 0.022942377 0.26977244
000020 8f fb 73 3c bf ef b3 3e d1 c6 fc 3e 3d 09 06 3e
       0.014891519 0.3514385 0.49370435 0.13089462
000030 dd 3e 7f bd dd 2d ec 3b 53 a6 4a bc 43 4f c7 3d
       -0.06231581 0.0072076158 -0.012368756 0.09731915
000040 a5 7b 75 bd 23 08 d3 3e 0c 04 af 3d 4f b5 51 3d
       -0.05993237 0.41217145 0.08545694 0.0511983
000050 62 76 89 be 5d 74 f8 3d ba 87 77 3d d6 6a e4 be
       -0.2684813 0.121315695 0.060432173 -0.4461276
000060 b0 64 3c bd 7c d6 35 3e ea 78 f4 3d c0 7d 12 3c
       -0.04599446 0.177576 0.11937125 0.008941114
000070 07 99 1c be ac 60 b4 bc 4b d6 17 3e 5a d4 84 bd
       -0.1529275 -0.022018753 0.1482784 -0.06485815
000080 21 99 82 3d e3 3f 3a 3e c4 08 0b 3d eb d6 21 be
       0.06376863 0.18188433 0.033943906 -0.15804641
000090 98 cc 83 3e 7d 9e 8c 3e f6 53 bc 3c 44 fe 81 be
       0.2574203 0.27464667 0.022989254 -0.25389302
0000a0 bb f2 99 3c a3 04 91 bd e9 b4 37 3e 5d 0c 2c be
       0.0187925 -0.070809625 0.17940105 -0.16801591
0000b0 c8 b4 f6 3e 62 02 01 3e 28 1e 6e bd a6 f0 a7 3d
       0.481848 0.12598565 -0.058134228 0.08200197
0000c0 09 3b 8a bd d4 5e 23 3e 7f b7 4c be 3c 9d 07 be
       -0.06749541 0.15954143 -0.19991873 -0.13243574
0000d0 a7 0b 0a bc 80 b0 ae bd 7e aa 4f be 1c 4b 8f be
       -0.00842563 -0.085297585 -0.20279881 -0.2798699
0000e0 af 14 7e 3e e6 36 96 3e a9 38 36 be 11 13 14 bc
       0.24812578 0.2933876 -0.17795052 -0.009037749
0000f0 ef 4e 5a bc 6e 1e c5 bc eb 5d 2b be 42 35 e2 3e
       -0.013324483 -0.024062362 -0.16735046 0.44181257
000100 0d 8f a9 3d 51 03 1f be 43 23 0d be 36 a0 7f 3d
       0.08279238 -0.15528609 -0.13782983 0.06240865
000110 6c f4 84 3e 96 a9 f8 3d 3f 5d 42 3d af 86 38 be
       0.2596773 0.12141721 0.047452208 -0.18020128
000120 96 41 be 3d 95 26 f5 3c 65 29 4b 3e ef 3f 62 3d
       0.09289853 0.029925624 0.1984001 0.055236753
000130 84 dd 8e bc 1c 7a 5c 3d 26 c9 07 bd b0 ee e6 3d
       -0.017439611 0.05382739 -0.033150814 0.11275995
000140 45 da 4e bd f1 1a 1d be 4b a1 ad 3c ec b5 83 3c
       -0.050501127 -0.15342309 0.021195075 0.016077958
000150 99 b0 d6 bd d0 a0 4f bd 37 b5 e0 bd 7a 24 e3 3d
       -0.10482902 -0.050690472 -0.10972064 0.11090942
000160 6e b5 5c 3e 19 15 17 bd 09 92 02 3d 0f 29 86 3e
       0.21553585 -0.036885355 0.03187755 0.262032
000170 e9 d3 36 3d 47 e1 04 be 68 8d 38 3d e3 51 7c 3e
       0.044635687 -0.12976561 0.04505673 0.24640612
000180 9b 64 8c 3d e9 03 87 3e 5a 80 59 3e 63 1d 14 3e
       0.068551265 0.2637017 0.21240368 0.14464335
000190 3c 1c 42 3d 5f ac cb bd 80 ad 20 3d 37 24 a8 3d
       0.047390208 -0.099449866 0.039227962 0.082100324
0001a0 26 7d 0a 3d 74 3f e9 3c 2c 48 8e 3d fa 9b 75 3a
       0.033810757 0.02847264 0.069473594 0.00093692506
0001b0 ef ad a4 bc a1 e9 14 be 8f e7 8e bc ee da 6a bd
       -0.02010247 -0.14542247 -0.0174444 -0.057337694
0001c0 d7 b5 13 3e 80 cb 57 3d 98 d3 ad 3d c5 26 17 be
       0.14424835 0.052684307 0.08487624 -0.14760883
0001d0 6f 2e 96 bd 40 75 d2 3d f0 70 f5 3d cd 42 f5 bb
       -0.07333075 0.1027627 0.11984432 -0.00748477
0001e0 45 12 4a 3d 83 16 a8 bd 4d 31 f8 3c c9 53 a0 bd
       0.04933383 -0.08207419 0.030296946 -0.07828481
0001f0 a1 c0 e4 3c 2e b6 83 3d 99 db c8 3d 68 a3 aa 3d
       0.027923884 0.064312324 0.0980751 0.083319485
000200 3a cb d4 bc 2b 30 9d 3d fa 82 1c bd 1a 81 fe 3c
       -0.025975812 0.07675203 -0.038210846 0.03106742
000210 dc 3d bc 3c fa dd 14 bd 23 4c 9d 3d 35 10 58 3b
       0.022978716 -0.036344506 0.076805376 0.0032968645
000220 ce d0 f3 3c a4 36 ca bc a6 01 1a 3d d0 f2 a1 bd
       0.029762652 -0.024684258 0.03759923 -0.07907641
000230 c3 1b 44 bd 72 a8 e6 bc 32 1c 6f ba 17 ba 88 bd
       -0.04787804 -0.028156493 -0.0009121328 -0.06676119
000240 3e 02 91 bd 43 dd c6 3c 2e 83 b9 3d 59 85 b5 bc
       -0.07080506 0.024275428 0.09058224 -0.022158312
000250 b1 65 74 ba a3 9c e5 bc 11 5f 3e bd f5 44 75 3d
       -0.00093230145 -0.028028792 -0.04647738 0.059880216
000260 7a d4 e9 bc 24 ee e5 3c 46 45 7a 3a f7 f9 71 bc
       -0.0285437 0.028067656 0.0009547066 -0.014769069
000270 89 4e 90 3d 09 54 17 3d f6 a7 85 3d 8e e2 83 bd
       0.070462294 0.036945377 0.06526177 -0.06439696
000280 1b f1 f4 bd 07 b2 b0 bb 4d 68 f7 b9 b5 a6 68 bd
       -0.1196005 -0.0053923163 -0.0004718922 -0.05679961
000290 01 de b7 3b e4 64 0c 3d 80 99 95 3b 6e fe b0 bc
       0.0056111817 0.034275904 0.0045654178 -0.021605697
0002a0 91 b1 b9 bc 84 4f 2d 3c da d8 9e 3c 8f f8 60 3d
       -0.022667678 0.01057804 0.019390512 0.054924544
0002b0 a3 02 58 bc b8 c6 e8 3c 0d de 31 3d fe 83 d6 bd
       -0.013184222 0.028415069 0.043424655 -0.10474394
0002c0 87 65 01 bd ee f7 6a bc 90 4c 03 bd 2f f4 72 3d
       -0.031590965 -0.014341338 -0.032055438 0.059314903
0002d0 26 52 ac 3b eb a4 ba bd d7 0c 62 bd 06 4e 59 bc
       0.0052588163 -0.09113487 -0.055188026 -0.013263231
0002e0 48 97 de 3c 80 24 50 3c 85 63 56 bc 8f f1 5a 3d
       0.027171746 0.012704015 -0.013085251 0.053453024
0002f0 81 d6 23 bd e2 9e 50 bd 2b 85 5f bd 21 2a 81 bc
       -0.03999949 -0.050932772 -0.05457036 -0.015767159
000300 32 26 48 3e dd 38 eb 3d 3f ed 3e 3e 80 ee c2 3d
       0.1954582 0.11485455 0.1864519 0.095181465
000310 8e d7 89 3e f4 bf 89 bd 51 58 7d bd d6 91 15 3e
       0.26922268 -0.06726065 -0.061851803 0.14606413
000320 57 ff 3f bd e7 8d a0 3d 26 82 6d 3a 38 57 79 bd
       -0.04687437 0.07839566 0.0009060226 -0.060874194
000330 42 8f 79 3e 06 0a 77 bc fa 20 c2 3d 63 76 22 3e
       0.24371055 -0.015078073 0.09478946 0.15865473
000340 64 02 fc bd d8 d8 49 3e 67 ee 5f 3e 65 bc 35 bc
       -0.123051435 0.19711626 0.21868287 -0.01109228
000350 a4 4c 67 3e e0 a7 1c bd 7b 6f 11 3e b2 72 dd 3d
       0.2258783 -0.038246036 0.14202683 0.10812892
000360 64 84 29 3e ce b6 00 3e 5a ee 0c 3e ab 95 8a bd
       0.1655441 0.12569734 0.13762799 -0.06766828
000370 90 7f f0 bd a6 78 6b 3d 81 19 c2 bc 97 b8 2e be
       -0.117430806 0.057488106 -0.023693802 -0.17062603
000380 a8 ad 33 be 79 b3 b7 3c 0c b6 53 3d b9 29 c1 3d
       -0.17546713 0.022424446 0.051687285 0.09431786
000390 a1 1c ca bd b5 28 9f bd ef 76 84 3e 32 82 d7 3b
       -0.09868742 -0.07771436 0.2587199 0.0065768
0003a0 99 a5 ad be 8a ee bf 3d 3d 64 4c be 25 81 ba 3d
       -0.33915403 0.093716696 -0.19960113 0.091066636
0003b0 2a bc 94 3d 7c 39 86 3d fb a4 22 3c d7 51 92 3c
       0.07262452 0.06553933 0.00992703 0.01786129
0003c0 99 70 a5 bc 96 2a 27 3c af a3 d2 bd 48 ff 36 be
       -0.020195292 0.010203024 -0.102851264 -0.1787082
0003d0 2b 13 e9 3d a2 bf 03 3d 2e 30 20 be 1d 68 aa bd
       0.11380609 0.032165177 -0.15643379 -0.08320639
0003e0 ca 50 26 3e ed 0a 21 3e 8f 05 7f 3d 99 31 ec bd
       0.16241756 0.15726824 0.06226116 -0.115328975
0003f0 83 98 a5 bd 21 39 d3 3e 9d 85 12 3d 3c 82 1f 3e
       -0.0808573 0.41254523 0.035771955 0.15577024

model.0.bias f4 [256]
000000 dc 15 1c c0 d0 3c aa bf c8 60 fc bf 0f 83 d3 bf
       -2.4388342 -1.3299809 -1.9717035 -1.6524371
000010 a5 2f 8f bf f6 c7 24 c0 98 d2 8d bf 9f e9 3d c0
       -1.1186415 -2.5747046 -1.1079893 -2.967384
000020 f2 b6 2f bf 52 db ee bf 3e 9f 16 c0 88 9f e6 be
       -0.6863853 -1.8660681 -2.3534694 -0.45043588
000030 9a d9 50 bf b9 98 bf bf 4e 84 da bf 73 78 fd bf
       -0.81582034 -1.4968482 -1.7071626 -1.9802383
000040 50 b6 c9 bf b0 48 f2 bf a0 8c 08 c0 3c 02 24 c0
       -1.5758762 -1.8928432 -2.133583 -2.5626364
000050 42 53 3a c0 01 39 f0 bf e3 ad 1b c0 38 ba 85 bf
       -2.9113317 -1.8767396 -2.4324882 -1.0447454
000060 70 ae 00 c0 ad 36 bf bf 27 99 4a c0 1a 84 fa bf
       -2.0106468 -1.4938561 -3.1655977 -1.9571564
000070 c6 93 b7 bf 87 41 3d c0 fb 74 28 c0 70 7f ab bf
       -1.4341972 -2.9571245 -2.63214 -1.3398266
000080 97 8d 28 c0 80 ef c1 bf 8e c7 ea bf c1 c3 51 bf
       -2.633642 -1.5151215 -1.8342149 -0.8193932
000090 6b e9 ca bf c5 d2 fc bf 8d c3 d8 bf 46 cb 3a c0
       -1.5852484 -1.9751822 -1.6934677 -2.9186568
0000a0 13 b0 25 c0 a6 b2 b7 bf 4b 7d c5 bf 90 52 20 c0
       -2.5888717 -1.4351394 -1.5428861 -2.5050392
0000b0 e6 c1 2d bf 1f 4b d3 bf 66 71 0a c0 6d 70 cb bf
       -0.6787399 -1.65073 -2.1631713 -1.5893685
0000c0 83 80 29 c0 72 90 86 bf 9c a9 09 c0 0d 30 f7 bf
       -2.6484687 -1.0512831 -2.1509771 -1.9311539
0000d0 59 7d 36 c0 6f 51 cb bf 65 bd 4a c0 cf ec 35 c0
       -2.8514006 -1.5884227 -3.1678097 -2.8425786
0000e0 ae d8 46 c0 f0 fb b8 bd 18 40 14 c0 c3 f2 6e bf
       -3.106975 -0.09032428 -2.316412 -0.93339175
0000f0 10 e9 bc bf 6f 9c fe be 65 6f 06 c0 f6 9b b3 bf
       -1.4758625 -0.49728724 -2.100549 -1.403197
000100 94 4e 15 c0 bc 97 b0 bf 40 e8 04 c0 d0 16 26 c0
       -2.332921 -1.3796306 -2.0766754 -2.5951424
000110 81 a7 2e c0 fc 1a 90 be f8 3b 63 c0 f0 89 cc bf
       -2.7289736 -0.28145587 -3.5505352 -1.5979595
000120 65 3f 08 c0 fd 9c f6 bf 61 64 11 c0 ca 88 02 c0
       -2.1288693 -1.9266659 -2.2717516 -2.039599
000130 90 13 ac bf 5d c2 8e bf 96 02 16 c0 07 9b fa bf
       -1.344347 -1.1153065 -2.3439078 -1.957856
000140 3a 18 ab 3d 1b 78 34 c0 ab 74 60 bf 54 61 40 c0
       0.0835423 -2.8198307 -0.8767802 -3.0059404
000150 6c b8 1b c0 13 5e bc bf 1e 63 cb bf 25 39 88 bf
       -2.4331312 -1.4716209 -1.5889623 -1.0642439
000160 b0 06 fb bf 79 d6 05 c0 f8 7e 0a c0 1c f9 fd bf
       -1.9611416 -2.0912154 -2.1639996 -1.9841647
000170 cd 01 c7 bf d4 63 eb bf 74 58 aa bf 68 cc 09 c0
       -1.5547425 -1.838984 -1.3308244 -2.153101
000180 ed e6 15 c0 12 22 06 c0 dd c5 ef bf 8e df 17 c0
       -2.3422196 -2.0958295 -1.8732258 -2.3730197
000190 ab df e4 bf 0b f5 00 c0 74 1b ed bf d3 58 01 c0
       -1.7880758 -2.0149562 -1.8524003 -2.0210464
0001a0 99 e1 33 be 9a 63 14 c0 84 76 fd be 06 f8 bf bf
       -0.17566527 -2.3185792 -0.49504483 -1.4997566
0001b0 8d a0 1a c0 b4 60 d6 bf df cc 1f c0 00 a8 b8 bf
       -2.4160492 -1.6748261 -2.4968793 -1.442627
0001c0 c0 35 f3 bf da 34 ee bf 83 fb 15 c0 c5 44 f2 bf
       -1.9000778 -1.8609879 -2.343476 -1.8927237
0001d0 73 3d 09 c0 41 ef dd bf f4 e9 34 c0 1b b0 e8 bf
       -2.1443756 -1.733864 -2.8267794 -1.8178743
0001e0 f0 f0 00 c0 3b 9a bc bf 59 c5 07 c0 54 8e 17 bf
       -2.0147057 -1.4734567 -2.1214201 -0.5920155
0001f0 73 89 71 be b8 31 1e c0 1b 93 bd bf e4 10 e8 bf
       -0.23587589 -2.4717846 -1.4810518 -1.8130155
000200 c8 8f 1e c0 a7 cb fb bf ed 9d 24 c0 42 14 93 bf
       -2.4775257 -1.9671525 -2.572139 -1.1490557
000210 79 69 34 c0 cf 3c 0d c0 e9 2e 22 c0 a1 f5 f0 bf
       -2.8189375 -2.2068365 -2.5341132 -1.882496
000220 92 8b 1f c0 66 59 23 c0 5e e2 d5 bf 3c f3 14 c0
       -2.4928937 -2.5523314 -1.6709707 -2.3273458
000230 c3 12 c0 bf f8 e3 c0 bf e5 27 17 c0 c8 dd da bf
       -1.5005726 -1.506957 -2.36181 -1.7098932
000240 82 17 4b bf 46 17 2d c0 e4 74 f0 bf a5 d7 ef bf
       -0.79332745 -2.7045455 -1.8785672 -1.8737684
000250 33 d7 40 c0 d7 59 5e c0 51 a0 e1 bf fb ff 77 bf
       -3.0131347 -3.4742334 -1.762705 -0.9687497
000260 5f 72 16 c0 c0 7e 26 c0 dd e8 fa bf 46 40 32 c0
       -2.3507307 -2.6014862 -1.9602314 -2.785173
000270 b6 a4 bf be 21 0c 0b c0 11 75 8f bf 72 0f fa bf
       -0.37430352 -2.1726153 -1.1207601 -1.9535964
000280 76 53 23 c0 87 a4 c2 bf 17 33 ba bf d1 07 8b bf
       -2.551969 -1.520646 -1.4546841 -1.086176
000290 2b bd 1b c0 f6 eb 17 c0 3b c1 c3 bf 61 b3 5c c0
       -2.433421 -2.373777 -1.5293344 -3.4484484
0002a0 ee fa ac bf b1 86 59 c0 70 fa e0 bf 51 ea 22 c0
       -1.3514078 -3.398846 -1.7576427 -2.5455515
0002b0 27 3a f3 bf 60 78 25 c0 b0 b7 83 bf 98 d1 18 c0
       -1.9002122 -2.585472 -1.0290432 -2.3877926
0002c0 b1 e5 47 c0 83 c2 15 c0 04 d7 45 bf 6c 71 06 c0
       -3.1233943 -2.339997 -0.7728121 -2.1006727
0002d0 a5 f9 20 c0 8d 7e b3 bf 79 60 f6 bf 90 0e 6c bf
       -2.515237 -1.4022995 -1.9248191 -0.9220972
0002e0 eb 07 9e bf 2d a0 41 c0 25 57 91 bf b2 02 37 c0
       -1.2346166 -3.0254014 -1.1354719 -2.8595395
0002f0 2d fb 14 c0 df b5 c7 bf d9 c8 57 c0 28 74 ea bf
       -2.3278306 -1.5602378 -3.3716338 -1.8316698
000300 de 61 de bf 39 b5 a0 bf 2e 4d aa bf d4 f8 01 c0
       -1.7373617 -1.2555305 -1.3304803 -2.0308123
000310 15 40 25 c0 f9 53 f4 bf f7 5e e0 bf 91 9a f7 bf
       -2.5820363 -1.9088126 -1.7528981 -1.9344045
000320 4f 22 e4 bf 4d 68 a8 bf a9 7e af bf 1b 49 3c c0
       -1.782297 -1.315683 -1.3710529 -2.941962
000330 e8 26 34 bf ed 07 56 c0 7d 1e 14 c0 3c a1 42 bf
       -0.70371866 -3.3442338 -2.3143609 -0.76027274
000340 fd d1 33 c0 52 f1 1c c0 ea f6 cf bf 1c d1 00 c0
       -2.8096917 -2.452229 -1.6247227 -2.012763
000350 e0 4e d0 bf 39 80 fd bf d0 52 52 c0 2e b0 16 c0
       -1.6274071 -1.9804755 -3.2863045 -2.3545032
000360 bd 14 96 bf e3 42 70 be 92 c1 ff bf 64 de 05 c0
       -1.1725079 -0.23463015 -1.9980948 -2.0916986
000370 31 b9 ae bf d8 1a 14 c0 88 16 3b bf ee d4 c1 bf
       -1.3650266 -2.3141384 -0.73081255 -1.5143106
000380 77 83 03 c0 7b 71 30 c0 c6 20 0f c0 d8 00 cb bf
       -2.054899 -2.7569263 -2.2363753 -1.5859632
000390 21 33 b3 bf 6c 61 f0 bf c9 a7 0c c0 48 50 a8 bf
       -1.3999978 -1.8779731 -2.1977408 -1.31495
0003a0 c8 b8 28 c0 5b 40 08 c0 b3 21 72 bf 50 60 30 c0
       -2.6362782 -2.128928 -0.9458267 -2.7558784
0003b0 f1 b7 47 bf 21 80 df bf 81 b7 f0 bf b2 39 19 c0
       -0.7801505 -1.7460977 -1.8806001 -2.3941464
0003c0 f6 3e 39 c0 10 4d 70 bf 93 13 2f c0 fe 89 a4 bf
       -2.8944678 -0.9386759 -2.7355697 -1.2854612
0003d0 03 96 4e c0 af 3e 47 bf 04 34 c0 bf c9 49 24 c0
       -3.227906 -0.7783002 -1.5015874 -2.5670035
0003e0 c7 8b 03 c0 d2 0e eb bf 04 54 74 bf 2c 39 19 c0
       -2.0554063 -1.8363898 -0.954407 -2.3941145
0003f0 ad f4 1c c0 f0 ea ce bf aa df 0b c0 f6 43 e1 bf
       -2.4524338 -1.6165447 -2.1855264 -1.7598865

model.2.weight f4 [784, 256]
000000 5a e7 3b bf cd f0 d3 be d0 b9 18 bf f8 d7 6f bf
       -0.7339989 -0.41394654 -0.5965853 -0.9368892
000010 b2 06 33 bf 68 6e a8 be e5 1c 36 bf 9c 04 b3 3e
       -0.6993209 -0.32896733 -0.7113784 0.34964454
000020 82 f1 82 be 94 18 a7 3d 86 ca 43 3d 5a 03 0d 3d
       -0.2557488 0.08158985 0.047800563 0.034427024
000030 41 5c 10 be d8 b8 59 3d eb 5e b7 be 63 32 16 c0
       -0.14097692 0.053154796 -0.35814604 -2.3468254
000040 84 4f 2c c0 7b fd cd 3c b4 01 2a bf fb bb 7c be
       -2.6923532 0.025145283 -0.6640885 -0.24681084
000050 9d 31 35 bf 17 d2 88 3e f5 47 84 bf 22 5c d3 3e
       -0.7077883 0.26722786 -1.033446 0.4128123
000060 12 b1 d3 be 6f 06 d6 3d 0e 76 2b bf 22 22 9f be
       -0.4134603 0.10450446 -0.6697701 -0.3108073
000070 a8 6e f5 bc 32 8a 31 be c4 f3 0e bf a0 95 86 bd
       -0.029959992 -0.17337874 -0.55840707 -0.065715075
000080 d7 74 2d bf b6 1b 3d 3d b3 6e ee bd 91 c7 0a be
       -0.6775641 0.046169005 -0.11642208 -0.13552691
000090 c2 ce e5 3e c9 88 3b bf 45 e4 88 bf c6 aa 8d bc
       0.44884306 -0.7325559 -1.0694662 -0.017293345
0000a0 ed 37 0a bf 49 b7 89 be f5 a9 46 3e d0 34 7f bf
       -0.53991586 -0.26897648 0.19400771 -0.9968996
0000b0 ed 90 af be 8f 7d 65 bc 79 b2 9c be 0d f6 3f bf
       -0.34290257 -0.014006986 -0.30604914 -0.7498482
0000c0 40 9e 20 bf be eb 1d bf 2a 9b 6e bf 54 c8 96 be
       -0.6274147 -0.6168784 -0.9320551 -0.29449713
0000d0 ba 92 c7 bf 6f 4f b3 be 8f 21 22 bf 89 03 93 be
       -1.5591652 -0.3502154 -0.63332456 -0.28713635
0000e0 24 ff 39 bf 62 d0 e1 be 90 fe f3 be 36 1f 5c bf
       -0.7265494 -0.44104296 -0.47655153 -0.85985124
0000f0 df 48 df c0 50 3a 8a 3c 6d 01 95 be 29 ba 79 bf
       -6.9776454 0.016873509 -0.2910265 -0.9754968
000100 33 be 2c 3c 02 2f 26 be 56 3a 73 bf cd 96 b7 3d
       0.010543394 -0.1622887 -0.9501089 0.0896431
000110 f8 fd 06 3e 5a 25 35 bf 8e c5 10 bf 2a a2 4f bf
       0.13182819 -0.7076012 -0.56551445 -0.8110682
000120 7f a1 b6 bd 17 f4 8c be 0f 84 98 be 6d 5e 0e 3f
       -0.08917522 -0.27529976 -0.29788253 0.5561283
000130 3a 52 87 bf 9b be 9f 3e fe e3 aa be 39 13 23 bf
       -1.0571969 0.31200108 -0.3337707 -0.63701206
000140 e1 92 ad bf 46 8f 4c bf fd 79 31 be 3c cf 2d bf
       -1.3560449 -0.7990612 -0.17331691 -0.6789434
000150 28 9d 13 bf 42 bf a6 be f6 cb ef be 21 27 dc bd
       -0.57661676 -0.32567793 -0.46835297 -0.10749651
000160 d3 19 f4 be b4 75 70 bf 00 c3 28 bf d1 4b aa be
       -0.47675952 -0.939296 -0.65922546 -0.33260968
000170 0a 2a 81 3e fd d8 bd 3d 46 1c 2b bf 5d 60 f9 3e
       0.25227386 0.09269903 -0.66840017 0.48706332
000180 ce c0 f2 bd 8f db 15 3e a2 24 48 3e 39 8f cc be
       -0.11853181 0.14634536 0.19545224 -0.3995302
000190 6f 20 81 bf fa 68 4e bf 12 17 dc be 70 cc 72 bf
       -1.0088023 -0.8062893 -0.4298635 -0.94843197
0001a0 0c df 8f bd cd 01 5a bd f9 09 46 bf ef 32 44 bd
       -0.07024965 -0.053224374 -0.7735897 -0.047900137
0001b0 ff 74 1d c0 1d 8b bb be 18 0a 1a bf ac c7 98 be
       -2.4602659 -0.36629573 -0.6017165 -0.29839838
0001c0 c5 09 2c bc c6 61 98 be 80 54 ba bd b4 87 dd be
       -0.010500376 -0.29762095 -0.09098148 -0.43267596
0001d0 73 8e cb be fb 56 15 bf 33 97 0b bf be a5 11 3e
       -0.39757118 -0.58335847 -0.54527587 0.14223382
0001e0 f5 37 0a bf 0c b0 5b 3e a9 9a b6 bf bf 52 11 c0
       -0.53991634 0.21453875 -1.4265949 -2.2706754
0001f0 6b 65 02 3c 61 78 47 bf d3 3c d6 bf a2 dc b5 be
       0.00795875 -0.7791806 -1.6737312 -0.35519892
000200 dd 83 2f bd 81 07 53 be ab ab 3d be 8c f2 48 be
       -0.042850364 -0.20608331 -0.18522517 -0.19623774
000210 c4 63 83 be 8f 5e 65 3d 9c 0e 3b be 11 9d a3 be
       -0.25662053 0.05599838 -0.18267292 -0.3195577
000220 9e 72 0a bf 26 d4 bf bf 1a 90 ed 3d c2 0b 03 bf
       -0.5408114 -1.4986618 0.11599751 -0.51189816
000230 a2 e0 47 bd fc 5b 78 3e 50 fd 2b be 01 82 b0 be
       -0.04879821 0.24253839 -0.1679585 -0.34474185
000240 17 33 06 bf 46 fa 64 bf 71 e6 e1 bf fc d3 77 be
       -0.52421707 -0.89444387 -1.764845 -0.2420196
000250 9b dd b1 3e 40 ba 20 bf 22 25 e4 be 1a fb d0 bc
       0.34739384 -0.62784195 -0.4455958 -0.02551036
000260 7d 42 35 bf 90 10 b7 3e ba 9d cd be da cc 81 be
       -0.7080458 0.35754824 -0.40159398 -0.25351602
000270 fa 3c 03 be f5 15 6e 3e 69 a6 b4 be da df 01 bf
       -0.1281623 0.23250563 -0.3528321 -0.50732195
000280 5b 49 5d bf 74 9a cc bf 62 1a 20 be 3c ab ac 3e
       -0.86440057 -1.5984635 -0.15635064 0.3372439
000290 0a 86 e5 be 28 39 86 bf 90 e6 00 3e 9c ca 4e bd
       -0.44828826 -1.0486193 0.12587953 -0.050486192
0002a0 6b ac c3 3e d6 f8 7a bf b5 82 8b 3e 27 21 bc be
       0.38217482 -0.98035944 0.2724816 -0.36744043
0002b0 7e 65 af be 5e ad 81 bf fb 54 26 bf f1 1d 1c bf
       -0.3425712 -1.0131032 -0.6497342 -0.60983187
0002c0 93 fe c2 be 8a ed 09 bf f2 5e 7f be be 42 e8 be
       -0.3808485 -0.5387808 -0.24938563 -0.4536342
0002d0 0a 19 73 bf 46 01 38 bb 7a 81 18 be 3a df 30 bc
       -0.9496008 -0.002807693 -0.14893141 -0.010795409
0002e0 ae 90 2f be ae 5a 8a bf e0 71 84 be f9 4c 94 be
       -0.17145035 -1.0808923 -0.2586813 -0.28964975
0002f0 53 7f 33 bf d2 75 90 be 52 6d a2 bf 29 58 5e bf
       -0.70116156 -0.2821489 -1.2689612 -0.8685327
000300 ff b2 19 bf 20 c5 ab bd 64 72 4b bf bb fc a9 be
       -0.6003875 -0.08387208 -0.7947142 -0.3320063
000310 aa 64 ea 39 12 04 a9 be 60 3d fa bf a6 38 ce 3e
       0.0004470696 -0.33010918 -1.954998 0.40277594
000320 ef 03 a3 3c a5 77 47 3e 67 7b ad be 28 15 dd be
       0.019899337 0.19479235 -0.3388321 -0.43180203
000330 87 4f 7c be 2e 6d 2c 3d 94 e1 70 3d 2a d3 1a bf
       -0.24639712 0.04209631 0.058808878 -0.6047846
000340 8f c2 3d bf d5 af a4 bd 61 a1 5e bd c0 dc 86 3e
       -0.74125 -0.0804135 -0.05435312 0.26340294
000350 4c db 50 bf 6a 8a 73 be 81 0a bc be 6a f5 12 bf
       -0.8158462 -0.2378327 -0.36726764 -0.5740572
000360 20 db d2 be ad 28 9f bf 24 06 40 be f9 bd aa bf
       -0.41182804 -1.2434288 -0.18752342 -1.3339225
000370 4a 50 51 be c5 71 0b bf c0 ef c9 be 23 ec 98 bc
       -0.20440784 -0.54470474 -0.39440727 -0.018667286
000380 81 e1 56 bf c6 05 0e bf 76 66 ec be f5 1d c6 bd
       -0.8393784 -0.5547756 -0.46171921 -0.096736826
000390 d3 13 fc be a3 22 2e bf fc d9 a1 3d 7a bc 03 bf
       -0.49233875 -0.680216 0.07902905 -0.5145947
0003a0 72 f2 8c be 23 0b f5 be 51 23 c7 3e 1a 67 0b bf
       -0.2752872 -0.4786006 0.38894132 -0.54454195
0003b0 a0 7e 55 be fa 1d 26 be 0e ea 1e 3c 3b 77 a0 3f
       -0.20849085 -0.16222373 0.009699358 1.2536386
0003c0 d1 af 44 bf 95 0c dd be cf b4 78 be 0a 6b 3e bf
       -0.76830775 -0.43173662 -0.24287723 -0.7438208
0003d0 59 7b d4 bc f7 13 90 be 8d d7 1c 3e 61 36 3f bd
       -0.025937723 -0.28140232 0.15316601 -0.04668272
0003e0 96 c8 b0 bf cd 42 45 bd fd 95 fe 3d 44 47 31 bf
       -1.3811214 -0.04815941 0.12430952 -0.6924937
0003f0 47 9d e3 3e 35 ee 2e bf 16 29 7d be b6 9d 3d bf
       0.4445593 -0.68332225 -0.24722704 -0.7406877

model.2.bias f4 [784]
000000 1a ed 53 bf d6 ee 2c bf 79 78 47 bf 30 df a0 bf
       -0.82783663 -0.67551935 -0.779182 -1.2568111
000010 11 d1 2f bf 2f 4b df be 7e fa 14 bf b9 4b 27 bf
       -0.68678385 -0.43612048 -0.5819472 -0.6534992
000020 d9 a3 d0 be c2 a0 26 bf 46 bc a8 be 9d 8d cc be
       -0.40750006 -0.65089047 -0.3295614 -0.39951792
000030 16 dd 8b bd b1 08 e9 be 28 58 97 be 77 99 a1 be
       -0.06829278 -0.45514444 -0.29559445 -0.31562397
000040 6b d9 b1 be 30 c7 7f be d8 13 c4 be 80 10 bf be
       -0.3473619 -0.24978328 -0.3829639 -0.37317276
000050 da 0d 1e bf 3e b3 d3 be 76 23 a6 be f2 34 fd be
       -0.61739886 -0.41347688 -0.3244893 -0.49454457
000060 ae 5c 37 bf 37 9a 11 bf ed 51 33 bf af a4 65 bf
       -0.7162579 -0.5687594 -0.70046884 -0.8970441
000070 7c 94 92 bf 92 ab 87 bf aa 70 7d bf b3 1f 26 bf
       -1.1451564 -1.0599234 -0.99000037 -0.6489212
000080 34 4f d3 be ac 7c 18 bf c4 cb 88 be 05 19 35 3d
       -0.41271365 -0.59565234 -0.2671796 0.044213314
000090 64 5c 07 3e 68 a2 f8 bd b3 d6 11 3d 7f 70 54 be
       0.13218838 -0.121403515 0.035605144 -0.20746039
0000a0 a7 e4 99 3c bd 1e 14 3e 6c 7b 82 3d 16 d8 6b 3c
       0.018785788 0.1446485 0.06371197 0.014394781
0000b0 e3 92 2f be 39 2c 61 be f6 82 40 3e 48 ae b7 bd
       -0.17145877 -0.21989526 0.18799958 -0.089687884
0000c0 4d 99 0a bc 97 e5 42 3d 1e e7 3d bf 0c 83 1e bf
       -0.008459401 0.047582235 -0.7418078 -0.6191871
0000d0 3b 5c 52 bf 52 b5 49 bf 59 b1 25 bf b8 dd 87 bf
       -0.8217198 -0.787923 -0.64723736 -1.0614538
0000e0 fe 30 96 bf 6d 7a 5f bf 52 9f 01 bf c7 69 31 bf
       -1.1733701 -0.8729618 -0.5063373 -0.6930203
0000f0 f8 44 2e be 4e 6d f0 be c3 6f 76 3c d6 35 c9 bd
       -0.17018497 -0.46958393 0.0150412945 -0.098247215
000100 b5 5c 94 3d 16 de 24 be 57 58 80 bd da 68 ae be
       0.07244245 -0.16100344 -0.062668495 -0.3406437
000110 a3 bd b1 bd a7 07 6f 3d 34 d8 1b 3e 97 7e fd bd
       -0.086787485 0.058356907 0.15219194 -0.12377661
000120 43 f6 86 bd ae ab 51 be 56 f9 bf be 92 e8 61 be
       -0.065899394 -0.20475647 -0.37494916 -0.22061375
000130 1d 61 a3 be e9 81 97 be cd 38 ce bc a1 07 02 bf
       -0.3191003 -0.295913 -0.02517357 -0.5079289
000140 93 99 04 bf c9 c3 26 bf 9d a8 63 bf 81 6e 69 bf
       -0.51796836 -0.65142494 -0.8892916 -0.9118424
000150 dc 43 6a bf ac d1 7f bf ff 82 d5 be 51 24 0d bf
       -0.91509795 -0.9992931 -0.41701505 -0.5513354
000160 f5 46 ef be 2a bf 6b bb bd 93 4f be 51 d0 62 bd
       -0.46733823 -0.0035972097 -0.20271201 -0.055374447
000170 ff 44 e7 bd 20 10 04 be 7d 7a db bd 36 3c 15 be
       -0.11292457 -0.12896776 -0.10716722 -0.1457375
000180 c1 2f 81 bb fb 3d b2 3d 00 16 47 3d 4f bc 34 be
       -0.0039424603 0.08703228 0.048604965 -0.17649959
000190 8c c6 85 be aa 77 65 be a8 ce 96 bd eb 87 f5 bd
       -0.26128042 -0.2240893 -0.07363635 -0.11988815
0001a0 cb 67 11 be a9 df 1f ba 93 14 34 be 60 93 ba be
       -0.1419975 -0.00060986966 -0.17585973 -0.36440563
0001b0 c4 ea 36 bf 71 b7 2d bf 82 e2 6b bf 76 c3 d9 be
       -0.71451974 -0.67858034 -0.921425 -0.42531937
0001c0 24 80 eb be ec 96 00 bf e3 3e 9d be 42 f5 c4 be
       -0.459962 -0.5023029 -0.3071204 -0.38468367
0001d0 ac 44 d2 be 29 a1 b5 be 4b 6e 6b bd 36 2e 78 be
       -0.41068017 -0.35474518 -0.05747823 -0.24236378
0001e0 43 21 17 be f3 c4 27 be 73 62 33 be f5 7b ab bc
       -0.14758782 -0.16383724 -0.17518024 -0.02093313
0001f0 11 e0 e5 bc 43 3b 2b bd 81 53 e0 ba 81 24 16 be
       -0.028060945 -0.041804563 -0.001711473 -0.14662363
000200 94 5b 0f be 27 61 90 be 77 a1 39 be b5 34 ac bd
       -0.13999778 -0.2819912 -0.18128 -0.084084906
000210 a9 99 c0 bd 7c 86 a3 bd 5e 9d ec bd f0 83 b2 be
       -0.09404308 -0.07984635 -0.11553453 -0.34866285
000220 19 c0 22 be 5b 99 01 bf 31 74 49 bf 76 49 5e bf
       -0.15893592 -0.50624627 -0.7869292 -0.8683084
000230 41 31 08 bf 91 bb bb be f8 5b 49 be 2c 28 bb be
       -0.53200155 -0.3666654 -0.1966399 -0.36554086
000240 c3 07 7c be 88 32 5d be 44 c0 f9 bd 4a a6 dd bc
       -0.24612336 -0.21601307 -0.12194875 -0.027056832
000250 dc ef 2d be a4 dc 82 be e5 3f 5e be 57 6e 37 be
       -0.1698603 -0.2555896 -0.21704061 -0.17913185
000260 bb 04 4f 3c 21 0c 5b be 06 25 18 be fc 37 1d be
       0.012635405 -0.21391346 -0.14857873 -0.15353388
000270 7f ac d3 bd 5a ac 62 be 7e a5 9b bd 1d cd c1 bd
       -0.103356354 -0.2213606 -0.075999245 -0.094629504
000280 4c 9b ef bd 9d f6 c0 3d 4b ba 33 be be 26 16 bf
       -0.116995424 0.09422038 -0.17551534 -0.58652866
000290 13 2c 06 bf 87 9f 76 bf 64 e0 30 bf d1 b5 58 bf
       -0.52411 -0.9633717 -0.6909239 -0.8465243
0002a0 3c 3d 52 bf 39 7a 2a bf 96 c0 77 be b5 24 44 be
       -0.82124686 -0.66592747 -0.2419456 -0.19154628
0002b0 ae fa 94 bd aa 9b 92 be 7f a0 d0 bc d7 19 db bd
       -0.07274376 -0.28634387 -0.025467156 -0.10698288
0002c0 18 2b 35 bd c6 80 96 be 45 56 70 be fb 1e 9c be
       -0.04423055 -0.2939512 -0.23470409 -0.30492386
0002d0 c5 06 5c be 09 0a 8c be 68 3f a9 bc f1 69 a8 be
       -0.21486957 -0.27351406 -0.020660117 -0.32893327
0002e0 7d 69 44 be ff c0 24 be 08 a1 89 bd b7 7b 2c be
       -0.19180866 -0.16089247 -0.067201674 -0.16844068
0002f0 09 9a 0a bd ee 3d 89 be 3f d1 65 be 7e 7f df be
       -0.033838306 -0.2680506 -0.22443102 -0.43651956
000300 01 42 a7 be ab 8c 0b bf 7d e7 dd be 78 15 24 bf
       -0.32667544 -0.5451152 -0.43340674 -0.6409526
000310 d4 cb 65 bf 1c 51 ef be 9c 07 ec be d0 76 fe be
       -0.8976414 -0.4674157 -0.46099555 -0.49700022
000320 86 d5 a2 be db 01 9d be 80 df 2b bd f4 fa 85 be
       -0.3180353 -0.30665478 -0.041961193 -0.26168025
000330 80 2c c3 bd 48 4b 29 be e8 e2 80 be a2 61 b9 be
       -0.09529972 -0.16532624 -0.25173116 -0.362073
000340 72 db 88 be 37 d2 54 be fd e2 41 be 1f a6 82 be
       -0.26729923 -0.20783316 -0.18934245 -0.25517365
000350 ee af dc bd 06 9d 9f be 36 a8 c3 bd 8e 1f 3d be
       -0.107757434 -0.31174487 -0.09553568 -0.18469068
000360 42 d4 78 be 68 ff 33 be 71 b5 e1 3d 21 59 3a be
       -0.2429972 -0.17577899 0.11020935 -0.18198062
000370 0d 2d 28 be 27 01 c7 be eb 5f 0d bf 5e c1 24 bf
       -0.16423436 -0.38868067 -0.55224484 -0.64357555
000380 12 12 33 bf 93 f3 06 bf 49 b5 e9 bd 32 7d 80 be
       -0.6994945 -0.52715415 -0.114115305 -0.25095516
000390 8e 50 ce be 95 38 1f 3b 10 37 0e be b0 c4 24 be
       -0.40295833 0.00242952 -0.13888192 -0.16090655
0003a0 cf 4c 0f be f3 ee 06 be d7 87 be bd 9a d3 44 be
       -0.13994144 -0.1317709 -0.09303253 -0.19221345
0003b0 c3 ea 6d be 7e 87 72 be 09 29 59 be 81 47 28 be
       -0.23234086 -0.23684499 -0.2120706 -0.16433527
0003c0 ef 29 26 be 8a d6 c1 bd 6f d2 89 be 07 83 a6 bd
       -0.16226934 -0.09464748 -0.2691836 -0.0813046
0003d0 7b bb bc be 81 c2 a7 bc de a4 72 bd 9e 47 c3 be
       -0.36861786 -0.020478489 -0.05923926 -0.38140577
0003e0 80 95 8a be 36 0e 0c bf ff ff 10 bf 8d 97 f9 be
       -0.27067184 -0.54709184 -0.5664062 -0.48748437
0003f0 f8 c6 36 bf 29 f8 e5 be 1f ce 45 bf 3d 25 26 bf
       -0.7139735 -0.44915894 -0.7726764 -0.6490057
