v2/discriminator.pth (torch, 560527 bytes, 9 tensors)

model.0.weight f4 [64, 1, 4, 4]
0	0xbeb8212c	-0.35962808
1	0xbf13e15e	-0.5776576
2	0xbef02258	-0.46901202
3	0xbe04ab48	-0.12955964
4	0x3eff7161	0.4989119
5	0x3f69023b	0.9101903
6	0x3f0eec5a	0.55829394
7	0xbe2a6021	-0.16638233
8	0xbe1be56e	-0.15224239
9	0x3e65bc2c	0.22435063
10	0xbe834295	-0.25636736
11	0xbed9e8cc	-0.42560422
12	0xbf092b2e	-0.5358151
13	0xbf6a0eea	-0.9142901
14	0xbe3faf8a	-0.18719307
15	0x3f0a6022	0.5405294
16	0xbefce2d7	-0.49391815
17	0x3e887ccd	0.26657715
18	0x3ebf3a8a	0.3734935
19	0xbd35d651	-0.04439384
20	0x3f1220b0	0.5708113
21	0xbf3767b7	-0.7164263
22	0xbe95e970	-0.2927966
23	0x3ecca072	0.3996616
24	0x3f0b4828	0.54406977
25	0x3f22b224	0.6355307
26	0xbf126eee	-0.57200515
27	0xbf10da9e	-0.56583583
28	0xbf168520	-0.5879688
29	0xbe1c27f1	-0.15249611
30	0x3f05257f	0.5201034
31	0x3e98400b	0.2973636
32	0x3ecfda1b	0.4059609
33	0xbf2bd66b	-0.6712405
34	0xbc44b3e0	-0.012005776
35	0x3e975a62	0.29561144
36	0x3eb993ec	0.36245668
37	0xbf4c2c3e	-0.7975501
38	0x3eb8db31	0.3610473
39	0x3da175a4	0.07883766
40	0x3dd16701	0.102247246
41	0xbf0213c8	-0.50811434
42	0x3f4c0e3f	0.7970924
43	0xbec47aad	-0.38374844
44	0xbe994774	-0.29937327
45	0x3e8b8cc4	0.27255833
46	0x3ec9d459	0.3941982
47	0xbe59f39b	-0.21284334
48	0xbf1243fb	-0.5713498
49	0x3ec0a3c6	0.3762495
50	0x3e9d0f1f	0.306756
51	0xbe64f2e1	-0.22358276
52	0xbeb63145	-0.35584465
53	0x3f024338	0.5088382
54	0x3f007cf6	0.50190675
55	0xbf0592c4	-0.5217707
56	0x3e00e9b7	0.12589155
57	0xbdcec2a2	-0.10095717
58	0xbcd0ca2c	-0.025487028
59	0xbe02daf3	-0.12778835
60	0x3f22ea5e	0.63638866
61	0xbf0a7460	-0.54083824
62	0xbf3c759a	-0.73616946
63	0x3f429068	0.76001596
64	0x3e024949	0.12723269
65	0x3ee1eb64	0.441249
66	0x3f1e61b2	0.6186782
67	0x3e02e951	0.12784316
68	0x3d6fe921	0.05857194
69	0xbd9166fa	-0.07099719
70	0xbea3628d	-0.31911126
71	0xbd92445b	-0.07141944
72	0xbe384dec	-0.17998475
73	0xbe8debe0	-0.2771902
74	0x3e42c04d	0.1901867
75	0xbf139d96	-0.5766233
76	0xbec7c2ac	-0.3901571
77	0xbe80f0d9	-0.25183752
78	0xbd206fe5	-0.03916921
79	0xbe7f2a31	-0.24918438
80	0xbe644f5d	-0.222959
81	0xbf1646ae	-0.587016
82	0x3e8904fd	0.26761618
83	0x3f2d4209	0.67678887
84	0xbde7e977	-0.11323827
85	0xbf4df6af	-0.80454534
86	0x3ec777fa	0.38958722
87	0x3dede592	0.11616053
88	0xbdb716c6	-0.089398906
89	0x3f2de975	0.6793435
90	0x3eb2b284	0.34901822
91	0xbf5bb56f	-0.8582372
92	0xbe2f2992	-0.17105702
93	0x3f1bd19d	0.6086672
94	0xbf00c2ab	-0.5029704
95	0xbecfe070	-0.4060092
96	0xbe8ae420	-0.2712717
97	0x3eaf4ea0	0.34239674
98	0x3e293cb2	0.1652706
99	0xbe38a12e	-0.18030235
100	0x3f4897f6	0.78356874
101	0xbf409049	-0.7522016
102	0xbef40e31	-0.47667077
103	0x3ea09230	0.31361532
104	0xbf1ae798	-0.60509634
105	0x3f0e1b7f	0.55510706
106	0x3ef1d4ab	0.47232565
107	0xbebfd257	-0.37465164
108	0x3e3dc2a7	0.18531285
109	0xbe256167	-0.16150437
110	0xbe11b097	-0.1422752
111	0x3e5e0006	0.21679696
112	0x3d89bf96	0.06725995
113	0xbd1b769c	-0.03795491
114	0xbdac8ca3	-0.08425262
115	0x3dca85c6	0.098887965
116	0x3f2ca9ff	0.67446893
117	0xbedd3e89	-0.43211773
118	0xbf332709	-0.6998144
119	0xbe97792a	-0.29584628
120	0x3f002072	0.5004951
121	0x3f003991	0.5008784
122	0xbe85666c	-0.26054704
123	0xbcbb9618	-0.022898719
124	0xbf23a58f	-0.639245
125	0x3e9e1919	0.30878523
126	0x3ee19061	0.44055465
127	0x3e172979	0.14761914
128	0xbdecf9b6	-0.11571066
129	0xbbd6a94d	-0.006550944
130	0x3f88166c	1.0631843
131	0xbe13a786	-0.14419374
132	0x3dea9b2a	0.114553764
133	0x3d8ba616	0.06818788
134	0xbf7c1972	-0.98476326
135	0x3b1a108f	0.0023508405
136	0xbe956e6a	-0.29185802
137	0xbd897a4d	-0.0671278
138	0x3fb8b1d5	1.442927
139	0xbd96d94e	-0.07365666
140	0x3d0a7c8a	0.033810176
141	0xbcb2bb3a	-0.021817792
142	0xbd53c1e0	-0.051698565
143	0xbe0c2252	-0.13684967
144	0xbe0029d5	-0.12515958
145	0x3eb3ec6a	0.35141307
146	0xbd8a8ae8	-0.067647755
147	0xbf3800b0	-0.7187605
148	0xbd02d129	-0.031937752
149	0x3d3ac210	0.04559523
150	0xbe0b8095	-0.13623269
151	0xbe980a61	-0.29695418
152	0x3d3161d3	0.043306183
153	0x3e10332f	0.14082025
154	0x3d93e942	0.07222225
155	0xbe0dc868	-0.1384598
156	0x3dec0c15	0.11525742
157	0x3db4492f	0.08803021
158	0x3b90356e	0.0044009006
159	0x3f60149c	0.8753145
160	0x3e9a04c0	0.3008175
161	0xbf45b6c0	-0.7723198
162	0x3f44c6c0	0.7686577
163	0xbeafab50	-0.3431039
164	0xbeb656c2	-0.35613066
165	0x3f48c40f	0.7842416
166	0xbf76a853	-0.9635059
167	0x3edf84e8	0.43656087
168	0xbe6aa65d	-0.22915025
169	0x3ed4b41a	0.41543657
170	0xbe5b115f	-0.21393345
171	0xbdb82d85	-0.08993057
172	0x3e96526c	0.29359758
173	0xbf27ed22	-0.6559621
174	0x3f0590c4	0.5217402
175	0xbe459349	-0.19294466
176	0x3d0076ce	0.0313633
177	0xbdce2c24	-0.10067013
178	0x3f02231b	0.50834817
179	0xbeda6a20	-0.42659092
180	0xbdbb5720	-0.09147477
181	0x3f47508e	0.7785729
182	0xbf9511bd	-1.1646038
183	0x3f09c58c	0.5381706
184	0x3f1a49f4	0.60269094
185	0xbf954ab4	-1.1663423
186	0x3f0e01fe	0.5547179
187	0x3ba5343a	0.0050416263
188	0xbeee4ce4	-0.46543038
189	0x3ef84255	0.48488107
190	0x3d952bc4	0.07283738
191	0xbda8ea52	-0.08247818
192	0xbe4fe3eb	-0.20301788
193	0x3eed27c4	0.463194
194	0xbeb21245	-0.34779564
195	0x3eb445df	0.35209557
196	0x3e9f50af	0.31116244
197	0xbf5685ac	-0.8379772
198	0x3f4a09b0	0.7892103
199	0xbf0b42c2	-0.5439874
200	0xbe62cf0a	-0.22149292
201	0x3f487ac7	0.78312343
202	0xbf1168a2	-0.5680028
203	0x3eb99118	0.3624351
204	0x3dee15a2	0.1162522
205	0xbeaf1cfe	-0.34201807
206	0x3dcd130a	0.10013397
207	0xbd171873	-0.03688855
208	0xbe6d66a3	-0.23183684
209	0x3ee5a99c	0.44855964
210	0xbe9b8651	-0.30375913
211	0x3e0e7297	0.139109
212	0xbe261b64	-0.16221386
213	0x3d37b75f	0.04485261
214	0xbe20ba50	-0.15696073
215	0x3f227c41	0.63470846
216	0x3e0725cd	0.13198014
217	0x3ef5cd82	0.48008353
218	0xbf8b3ed6	-1.0878551
219	0x3e9ecec8	0.31017137
220	0x3e45dd7b	0.1932277
221	0x3e12405b	0.14282362
222	0xbe657308	-0.22407162
223	0x3d911183	0.07083418
224	0xbe5bbe2a	-0.2145926
225	0x3f003046	0.5007366
226	0xbef25ec3	-0.47337922
227	0x3d139ae3	0.036036383
228	0x3efbda68	0.49190068
229	0xbf81402a	-1.0097706
230	0x3fa04270	1.2520275
231	0xbea7cbd0	-0.32772684
232	0xbe5b6660	-0.21425772
233	0x3ed7437e	0.4204368
234	0xbf5eda41	-0.8705178
235	0x3f16611e	0.5874194
236	0x3ccafb09	0.024777906
237	0x3db144c5	0.08655695
238	0x3e42b90f	0.19015907
239	0xbe8dc252	-0.27687317
240	0xbec29b5f	-0.38009164
241	0xbf15853a	-0.5840641
242	0x3de87e3a	0.11352201
243	0x3e9824bf	0.29715535
244	0xbd9675e6	-0.07346706
245	0xbddb3f92	-0.107054844
246	0x3e31be32	0.1735771
247	0x3e4ae8ef	0.1981542
248	0x3f0bbbd6	0.5458349
249	0x3f5ca6ec	0.861922
250	0x3e8b926b	0.27260146
251	0xbdc3e11e	-0.09564422
252	0x3dc98c76	0.09841244
253	0x3e767cb5	0.2407101
254	0x3e63fb74	0.2226389
255	0xbe7b4a4a	-0.24540058

model.0.bias f4 [64]
0	0xbf4e2900	-0.8053131
1	0x3bd4c35e	0.006493016
2	0xbe454bba	-0.19267169
3	0xbe2ad452	-0.16682556
4	0xbf52d840	-0.8236122
5	0xbf3e74d2	-0.74397004
6	0xbdbbd50d	-0.091714956
7	0xbea92b61	-0.33040908
8	0xbeb88a18	-0.36042857
9	0xbe7325ce	-0.2374489
10	0xbdcac899	-0.09901542
11	0xbac3bc6b	-0.0014933472
12	0xbe11aaba	-0.14225283
13	0xbe93fb8d	-0.28902856
14	0xbccaa7a9	-0.02473815
15	0xbebec201	-0.37257388
16	0xbeed09b2	-0.4629646
17	0xbf8f78e9	-1.1208774
18	0xbea246cc	-0.3169464
19	0xbe193299	-0.14960708
20	0xbefcdcd8	-0.4938724
21	0x3c8de7a8	0.017322376
22	0xbf3fb7be	-0.74889743
23	0xbc867230	-0.01641187
24	0xbe1e0eea	-0.15435377
25	0xbf102507	-0.563065
26	0xbeab7d5f	-0.33494088
27	0xbdbf10dc	-0.093293875
28	0xbeebea36	-0.46077126
29	0xbeb1dc62	-0.3473845
30	0xbd88531f	-0.06656479
31	0xbdf73aa4	-0.12071732
32	0xbccdda18	-0.02512841
33	0xbe8bc33b	-0.27297387
34	0xbcfab463	-0.030603593
35	0xbf115cf3	-0.56782454
36	0xbebcc9ee	-0.3687281
37	0x3bd180bc	0.00639352
38	0xbeb8f42b	-0.36123785
39	0xbf992615	-1.1964747
40	0xbf27cd5a	-0.65547717
41	0xbf0839b6	-0.5321306
42	0xbe6f2750	-0.2335484
43	0xbf31e6f0	-0.6949301
44	0xbed26fd9	-0.41100958
45	0xbdc83a43	-0.097767375
46	0xbe7985ad	-0.243674
47	0xbd689fdf	-0.05679309
48	0xbf4f831c	-0.8105943
49	0xbcd6abf2	-0.026205037
50	0xbf0abdab	-0.5419566
51	0xbe61060a	-0.2197496
52	0xbf3db6d1	-0.7410708
53	0xbd52323c	-0.05131744
54	0xbe4df052	-0.20111206
55	0xbf31a9c2	-0.69399655
56	0xbe2a3325	-0.16621073
57	0xbdc60023	-0.09667995
58	0xbecab758	-0.39593005
59	0xbe77e2c8	-0.24207604
60	0xbf35b275	-0.7097543
61	0xbf31914d	-0.69362336
62	0xbdb11ae1	-0.08647705
63	0xbea17718	-0.31536174

model.3.weight f4 [128, 64, 4, 4]
0	0x3e373b3a	0.17893687
1	0x3db06228	0.08612472
2	0xbead9601	-0.33903506
3	0xbd1c2245	-0.03811862
4	0xbf59eabf	-0.8512382
5	0xbf55a129	-0.83449036
6	0xbedabc1a	-0.42721635
7	0xbef0fc66	-0.47067565
8	0xbe6c995f	-0.23105381
9	0x3ce7b069	0.028282361
10	0xbf24e7c5	-0.6441615
11	0xbec9baf1	-0.39400437
12	0x3f23d83d	0.6400183
13	0x3ec4afb2	0.38415295
14	0x3d792133	0.060822677
15	0x3d5874f6	0.052845918
16	0x3f0a48e8	0.54017496
17	0xbe17eb63	-0.14835887
18	0xbea52fb0	-0.32262945
19	0xbefb2119	-0.4904869
20	0xbed11580	-0.40836716
21	0xbe2b1a8b	-0.16709344
22	0xbf2fd918	-0.68690634
23	0xbcf26d73	-0.029593205
24	0xbe1d56a1	-0.15365078
25	0xbed9875f	-0.42486092
26	0xbf95c309	-1.1700145
27	0xbddb30d8	-0.107026756
28	0xbecb208b	-0.39673266
29	0x3d6d445f	0.057926532
30	0xbf148b99	-0.5802551
31	0xbe91bd1d	-0.28464594
32	0xbe9f1ed2	-0.31078202
33	0xbee4b522	-0.44669443
34	0xbe0df293	-0.13862066
35	0xbda5c722	-0.08094622
36	0xbee83e78	-0.4536016
37	0xbef40088	-0.47656655
38	0xbeb7ee56	-0.35924023
39	0xbf08b37f	-0.5339889
40	0xbee5ca14	-0.44880736
41	0xbee22304	-0.4416734
42	0xbbfd44f4	-0.007729167
43	0xbe008f0e	-0.12554571
44	0xbef5c107	-0.4799883
45	0x3d2b00f0	0.04174894
46	0x3eaeb175	0.34119764
47	0x3df8fd3b	0.12157675
48	0xba8537fb	-0.0010163778
49	0xbe80ce57	-0.25157425
50	0x3e674714	0.22585708
51	0x3d800966	0.062517926
52	0x3f03b15a	0.5144249
53	0xbe01315f	-0.1261649
54	0x3e94c6d5	0.29057947
55	0xbe393ee3	-0.18090396
56	0x3f6182b6	0.88090074
57	0xbdd462e8	-0.10370427
58	0xbe69bb02	-0.22825244
59	0xbeb14ec3	-0.34630403
60	0xbda739af	-0.08165299
61	0x3f2aebc1	0.6676598
62	0x3ec26c07	0.37973043
63	0xbe9fde95	-0.31224504
64	0x3e2a882c	0.16653508
65	0x3e2a262d	0.16616125
66	0x3edd13b7	0.43179104
67	0x3e02fe8c	0.12792414
68	0x3f1c47c9	0.61047035
69	0x3f6ebe3c	0.93259025
70	0x3f271372	0.65264046
71	0x3e819147	0.2530615
72	0x3ced2e96	0.028952878
73	0x3e9721d7	0.29518005
74	0x3e9ae241	0.30250743
75	0xbe8db42c	-0.27676523
76	0xbe228915	-0.15872605
77	0x3ecb9719	0.39763716
78	0x3d95c60e	0.073131666
79	0xbe96b35d	-0.29433718
80	0xbfbb02a7	-1.4610184
81	0xbebf9c94	-0.37424147
82	0xbd12240b	-0.035678905
83	0xbea0960b	-0.31364474
84	0xbf3bff0e	-0.7343606
85	0xbe0cd39e	-0.137526
86	0x3e5d36ca	0.21602932
87	0xbeb35291	-0.3502393
88	0xbf13d259	-0.5774284
89	0xb9998d81	-0.00029287863
90	0x3e587763	0.21139292
91	0x3f181d2a	0.594195
92	0x3e08628e	0.13318846
93	0xbe7d4dfd	-0.24736781
94	0x3ab43d36	0.0013751152
95	0xbe83e56a	-0.25760967
96	0xbf2feb84	-0.68718743
97	0x3e7dbf69	0.24780048
98	0xbf0927fd	-0.5357664
99	0x3f5b56a2	0.85679066
100	0x3ca790cf	0.020454792
101	0xbe2e048c	-0.16993922
102	0xbe173cc1	-0.1476927
103	0x3f5c7a4f	0.8612413
104	0xbf300633	-0.6875946
105	0x3e24e918	0.16104543
106	0xbe6ef23d	-0.23334594
107	0x3ee4bf4c	0.44677198
108	0xbf44446c	-0.76666903
109	0x3e53627c	0.20643038
110	0xbea91920	-0.3302698
111	0x3e5dc966	0.21658859
112	0xbe1de0f8	-0.1541785
113	0xbea248fc	-0.31696308
114	0xbe4dcb23	-0.20097022
115	0x3dbb6334	0.09149781
116	0xbf67bcda	-0.9052254
117	0xbd65d038	-0.056106776
118	0xbd915806	-0.07096867
119	0x3d404bbd	0.04694723
120	0xbe483b77	-0.19553934
121	0xbe58c064	-0.21167141
122	0xbd7269cd	-0.05918293
123	0xbd9caea7	-0.076505
124	0xbeb932f8	-0.361717
125	0xbeac5ea7	-0.33665964
126	0x3f27e696	0.6558622
127	0xbe7df5fd	-0.24800868
128	0xbe88f284	-0.26747525
129	0x3e962bcf	0.29330298
130	0xbe529fa9	-0.20568718
131	0x3f30720b	0.68924016
132	0x3cfcdf37	0.030868156
133	0xbecc7959	-0.3993633
134	0xbc9492be	-0.018136378
135	0xbe267dd0	-0.16258931
136	0xbf382c49	-0.71942574
137	0x3ecb8617	0.3975074
138	0xbd9a7a69	-0.07542879
139	0xbeafac83	-0.34311303
140	0xbf605742	-0.87633145
141	0x3b4f94b3	0.0031674325
142	0xbdcdf7b1	-0.10057009
143	0x3dc4273a	0.095777944
144	0xbebd17ba	-0.36932164
145	0x3eee7b80	0.46578598
146	0xbea2884a	-0.31744605
147	0x3dd027ad	0.101638176
148	0x3e57a1de	0.21057841
149	0xbcd47fa1	-0.025939764
150	0x3e261730	0.16219783
151	0x3f1d3854	0.61414075
152	0x3ce477ab	0.027889093
153	0x3e1bf438	0.15229881
154	0x3e66a22c	0.22522801
155	0x3e081a6b	0.13291328
156	0xbf2bd15d	-0.6711634
157	0x3e15df0e	0.1463587
158	0x3efce3ef	0.4939265
159	0x3d802375	0.06256763
160	0xbf94b8f3	-1.1618942
161	0xbc5237b5	-0.012830664
162	0xbea7f30d	-0.3280262
163	0xbe870bbd	-0.26376143
164	0xbda3a599	-0.079905696
165	0x3e9443a0	0.28957844
166	0x3f7b858b	0.98250645
167	0xbe5887b5	-0.21145518
168	0x3d5d4980	0.054025173
169	0xbda61842	-0.081100956
170	0xbd8c8b17	-0.06862467
171	0x3ee8ae20	0.45445347
172	0x3e0625af	0.13100313
173	0xbe847db0	-0.25877142
174	0xbe3f4594	-0.18678886
175	0x3e3e3b1c	0.18577236
176	0x3dc31419	0.09525318
177	0xbecc7eef	-0.39940593
178	0x3d1aac72	0.037762113
179	0x3e260131	0.16211392
180	0xbdda4bb4	-0.106589705
181	0xbfae1947	-1.3601464
182	0x3ec6b15c	0.3880719
183	0x3f205b9b	0.6263978
184	0x3e9e3f23	0.30907544
185	0x3e5e1dc4	0.21691042
186	0x3ed8c154	0.42334998
187	0x3eae3701	0.3402634
188	0xbe98686a	-0.29767162
189	0x3d8e8212	0.06958403
190	0xbe1f20f6	-0.15539917
191	0x3eec3e7e	0.46141428
192	0xbf4de38c	-0.80425334
193	0xbf187abd	-0.59562284
194	0x3d4c726f	0.04991382
195	0xbed94350	-0.42434168
196	0xbfa8801e	-1.3164098
197	0xbe7913d8	-0.24323976
198	0xbf5696bc	-0.8382375
199	0x3e88483f	0.2661762
200	0xbf79c811	-0.975709
201	0x3e970aa8	0.29500318
202	0x3d37de45	0.044889707
203	0xbf31e78a	-0.69493926
204	0xbf465183	-0.77468127
205	0x3eba5786	0.363949
206	0xbed3106d	-0.4122347
207	0xbe737fa9	-0.23779167
208	0xbf1d62f5	-0.6147912
209	0x3d598434	0.053104594
210	0xbe322f1b	-0.17400782
211	0xbe173b12	-0.14768627
212	0xbf4df14e	-0.80446327
213	0xbd9f46bf	-0.077771656
214	0x3d9bfb5a	0.07616301
215	0xbe4d0eba	-0.20025149
216	0xbefb3c43	-0.49069414
217	0xbf140acb	-0.5782897
218	0xbf19f68c	-0.60141826
219	0xbf26dc8d	-0.65180284
220	0xbf5f6374	-0.8726113
221	0xbf0bbe6b	-0.5458743
222	0xbe3ebec7	-0.18627463
223	0xbec46675	-0.3835942
224	0x3f24e6a6	0.6441444
225	0xbf567975	-0.8377908
226	0x3e1fec17	0.15617405
227	0xbe8fc99b	-0.280835
228	0xbf7403e9	-0.95318466
229	0xbe5c3223	-0.215035
230	0xbfa9d15d	-1.3267018
231	0xbe462e2c	-0.1935355
232	0xbefb7de1	-0.49119475
233	0xbebacbd3	-0.3648363
234	0x3d1a7b00	0.03771496
235	0xbe75cc65	-0.24003752
236	0xbd224fd7	-0.039626922
237	0xbe8f4d8e	-0.27988857
238	0xbddd9012	-0.10818495
239	0xbf1a783a	-0.603397
240	0x3f359d6d	0.7094334
241	0x3eff4c6e	0.49863
242	0x3e1e37c5	0.15450962
243	0x3eabc118	0.33545756
244	0xbda2b61a	-0.07944889
245	0x3e233035	0.15936358
246	0x3b95f54e	0.0045763617
247	0xbd33e047	-0.04391506
248	0x3e22d16a	0.15900198
249	0x3f10c6ac	0.5655315
250	0x3e1330b1	0.14374043
251	0x3d025c14	0.031826094
252	0xbe0e7f43	-0.13915734
253	0x3e7a8675	0.24465354
254	0xbcd8466b	-0.026400765
255	0x3d895f97	0.067076854

model.3.bias f4 [128]
0	0x3cd16d75	0.025564888
1	0xbbe59aca	-0.0070069777
2	0xbe3a3f0c	-0.18188113
3	0xbe24ba5a	-0.16086712
4	0xbda2e2a2	-0.07953383
5	0x3d58fdd9	0.052976463
6	0x3bf8805a	0.00758366
7	0x3d353640	0.04424119
8	0x3dbe48d4	0.092912346
9	0x3cea999e	0.028637704
10	0x3d99ff7a	0.075194314
11	0x3e12e336	0.14344487
12	0x3c447b77	0.011992327
13	0x3d9a9173	0.075472735
14	0xbca41521	-0.020029606
15	0xbe274c5b	-0.16337721
16	0x3d7cb3d6	0.061694942
17	0xbbe9920e	-0.007128007
18	0x3d526912	0.051369734
19	0xbd822899	-0.063554
20	0x3c2a6c91	0.010401861
21	0x3d062c67	0.03275719
22	0x3d9766e1	0.073926695
23	0x3d9798f7	0.074022226
24	0xbcdc459d	-0.026888663
25	0xbb88f843	-0.0041799857
26	0x3e69af9c	0.22820896
27	0x3d851726	0.06498556
28	0xbd14a14b	-0.036286633
29	0x3c874862	0.016514007
30	0xbd7ec91f	-0.062203523
31	0xbb9bb89d	-0.004752232
32	0x3d48abe7	0.048992064
33	0x3d710a57	0.05884775
34	0x3d7f16da	0.062277652
35	0x3da42b71	0.08016098
36	0x3c8a90c2	0.016914729
37	0xbcfe0171	-0.031006547
38	0x3c89f02b	0.016838154
39	0x3dbadb6f	0.09123885
40	0x3da5cd4e	0.080957994
41	0xbd73459a	-0.05939255
42	0x3d255ba5	0.040370602
43	0xbb9714b0	-0.0046106204
44	0x3de06782	0.109572425
45	0x3d832571	0.06403626
46	0xbb6ca53a	-0.0036109225
47	0xbd7c98ee	-0.061669283
48	0x3e01af0b	0.1266443
49	0xba6a4d93	-0.0008937951
50	0xbd52f7ce	-0.051505856
51	0x3c1d730d	0.00960995
52	0x3c635bc3	0.013876858
53	0x3e12eac3	0.14347367
54	0xbce08d23	-0.02741105
55	0xbd1c2775	-0.038123567
56	0x3e282fc2	0.16424468
57	0xbd22824f	-0.039675053
58	0xbdfbed63	-0.12301137
59	0x3b86bbc6	0.00411174
60	0xba11fbc5	-0.00055688276
61	0x3d17ddab	0.037076633
62	0x3d1497c4	0.036277547
63	0xbd5dc655	-0.054144222
64	0x3e4ba266	0.19886169
65	0xbdb1e9d4	-0.08687177
66	0x3d433cd5	0.047665436
67	0xbd5e31e0	-0.054246783
68	0x3d176c0e	0.036968283
69	0x3d007cda	0.031369068
70	0xbd8f855c	-0.07007858
71	0x3c9a7ea7	0.01885922
72	0x3d198557	0.03748068
73	0xbd92a497	-0.07160299
74	0xbdeeb4fb	-0.11655613
75	0x3e3a21c9	0.1817695
76	0xbce3c56e	-0.027804103
77	0x3d02dea0	0.031950593
78	0x3c8447f7	0.016147597
79	0x3d434144	0.047669664
80	0x3e00d30b	0.12580507
81	0xbc83e1a7	-0.01609881
82	0xbbc4f908	-0.006011132
83	0xbbda48a9	-0.006661494
84	0x3cfae9ba	0.030629028
85	0x3d03815c	0.03210579
86	0x3e438a18	0.19095647
87	0x3da41403	0.080116294
88	0x3cb43d10	0.022001773
89	0x3ddffcb4	0.10936871
90	0x3e5b39ee	0.21408817
91	0xbd986993	-0.07442012
92	0x3dda770a	0.10667236
93	0x3c444d81	0.011981369
94	0x3e175061	0.14776756
95	0xbc20b820	-0.009809524
96	0x3d4b917f	0.049699303
97	0xbdb6dc93	-0.0892879
98	0xbceca10a	-0.028885383
99	0x3d38fd6b	0.045163553
100	0x3d2b27ab	0.041785877
101	0xbd3fbc66	-0.04681053
102	0xbd43dbd9	-0.047817085
103	0xbd826c36	-0.06368296
104	0xbd0a8522	-0.03381837
105	0xbd37fa2b	-0.044916313
106	0x3d554488	0.05206731
107	0xbe2236a9	-0.15841164
108	0xbcfd4cd7	-0.03092043
109	0x3daf4b50	0.085592866
110	0xbc470686	-0.012147551
111	0x3d052748	0.032508165
112	0xbd7137b3	-0.05889101
113	0x3cfa032b	0.030519089
114	0xbda45c8e	-0.08025466
115	0xbe030296	-0.12793955
116	0x3de17dbc	0.1101031
117	0x3dcc76cf	0.099835984
118	0xbd993bcf	-0.07482111
119	0xbdf769aa	-0.12080701
120	0x3e000a31	0.12503888
121	0x3d4259fa	0.04744909
122	0xbcefdb2e	-0.029279318
123	0xbd03c10e	-0.032166533
124	0xbd99f645	-0.07517675
125	0xbe3a3fd7	-0.18188415
126	0x3d13ede7	0.036115553
127	0xbd9c269f	-0.07624554

model.4.weight f4 [128]
0	0x3d39f002	0.045394905
1	0x3e929019	0.28625563
2	0x3dc879a6	0.097888276
3	0x3e3b732e	0.18305656
4	0x3e48ca53	0.1960843
5	0x3daca57f	0.084300034
6	0x3e7c638c	0.24647349
7	0x3e08464a	0.13308063
8	0x3eaf8c90	0.34286928
9	0x3e37281c	0.17886394
10	0x3d1490c8	0.036270887
11	0x3da2e7c7	0.07954364
12	0x3db16773	0.086623095
13	0x3e26bf69	0.16283955
14	0x3d684aa8	0.056711823
15	0x3e979283	0.29603967
16	0x3e2ddf1a	0.16979638
17	0x3ddddc83	0.10833075
18	0x3d11e7c7	0.03562143
19	0x3e69962b	0.22811191
20	0x3e24ad88	0.16081822
21	0x3dc19ae8	0.09453374
22	0x3e5d4292	0.21607426
23	0x3e41bcd5	0.1891969
24	0x3dd4daf9	0.10393328
25	0x3d1b9fce	0.0379942
26	0x3e3143a7	0.17310964
27	0x3e3af09f	0.18255852
28	0x3d5920c2	0.053009756
29	0x3e7b9f0d	0.24572392
30	0x3d25e055	0.040497143
31	0x3f1893fb	0.596008
32	0x3e706f53	0.23479967
33	0x3e88d85c	0.2672757
34	0x3db14d6d	0.08657346
35	0x3e14fa9e	0.14548728
36	0x3e1ca969	0.15299
37	0x3e074086	0.13208207
38	0x3d8b266d	0.067944385
39	0x3dad26bd	0.08454654
40	0x3e372e00	0.17888641
41	0x3e47406e	0.19458172
42	0x3eb7d238	0.35902572
43	0x3d76659f	0.060155507
44	0x3da8b656	0.08237903
45	0x3e044ca3	0.1291986
46	0x3dac9cf7	0.08428376
47	0x3db1d051	0.08682311
48	0x3ef25f19	0.4733818
49	0x3dff489f	0.12465023
50	0x3e06592c	0.13119954
51	0x3e34a152	0.17639664
52	0x3e0ae31a	0.13563195
53	0x3e3b70d4	0.1830476
54	0x3e7c1ebb	0.24621098
55	0x3d5c12aa	0.053728737
56	0x3e221626	0.15828761
57	0x3e14ed5c	0.1454367
58	0x3dceca63	0.10097196
59	0x3dae3382	0.08505918
60	0x3dbbc981	0.09169293
61	0x3cec57f2	0.02885053
62	0x3d911b4f	0.07085287
63	0x3d85507c	0.06509492
64	0x3ea6ac13	0.32553157
65	0x3e0f79be	0.14011285
66	0x3efb5051	0.49084714
67	0x3e7dfb88	0.24802983
68	0x3d8bec59	0.06832189
69	0x3db0f754	0.08640924
70	0x3e458df4	0.19292432
71	0x3d9bf28f	0.07614624
72	0x3d426de0	0.047468066
73	0x3d947f3b	0.0725083
74	0x3e56ab27	0.20963727
75	0x3e87a4c0	0.26492882
76	0x3e48feb1	0.19628407
77	0x3e40a7f4	0.18814069
78	0x3e646a6d	0.22306223
79	0x3daa4fc7	0.083159976
80	0x3d6f1b58	0.058375686
81	0x3dc7b44c	0.09751186
82	0x3d5d020b	0.053957026
83	0x3daaf5fe	0.083477005
84	0x3ddfce88	0.109280646
85	0x3e17543a	0.14778224
86	0x3d3f4641	0.04669786
87	0x3cd4e13c	0.025986306
88	0x3e715c75	0.23570426
89	0x3ed01547	0.40641233
90	0x3e64a143	0.22327141
91	0x3e2b0c3b	0.16703884
92	0x3e8f4dbf	0.27989003
93	0x3d40a1c2	0.047029264
94	0x3e5a63be	0.21327111
95	0x3e6aa74a	0.22915378
96	0x3e09d022	0.13458303
97	0x3ddda0dc	0.10821697
98	0x3e612d58	0.21989954
99	0x3e1ec896	0.15506205
100	0x3d69c618	0.057073683
101	0x3dc1e18f	0.0946685
102	0x3e399666	0.18123779
103	0x3d83f491	0.06443132
104	0x3de1e91a	0.11030789
105	0x3d62499f	0.05524599
106	0x3d9f2d40	0.07772303
107	0x3eb4d9ec	0.3532251
108	0x3d90e3c9	0.070746966
109	0x3d3a5f15	0.045500834
110	0x3d429dc8	0.047513753
111	0x3db30952	0.08742012
112	0x3de6385c	0.112412184
113	0x3e921e38	0.2853868
114	0x3d034e41	0.03205705
115	0x3d7a04b9	0.06103966
116	0x3e2d1151	0.16901137
117	0x3e450e81	0.19243814
118	0x3e7bc9c2	0.24588683
119	0x3e71e8ab	0.23623912
120	0x3da15e49	0.078793116
121	0x3e2e0c6d	0.16996928
122	0x3e4c98ae	0.19980118
123	0x3d9a7238	0.07541317
124	0x3cdaf3e2	0.02672762
125	0x3d91e1cb	0.07123145
126	0x3e4580ba	0.19287387
127	0x3dc19076	0.09451382

model.4.bias f4 [128]
0	0xbda7f3cc	-0.082007974
1	0xbea341e6	-0.31886214
2	0xbd988b9f	-0.074485056
3	0xbe34dfd9	-0.17663516
4	0xbe43e4d0	-0.19130254
5	0xbd87f004	-0.06637576
6	0xbe725a8f	-0.23667358
7	0xbde3039a	-0.11084671
8	0xbece4297	-0.4028518
9	0xbe6cde74	-0.23131734
10	0xbd874b0a	-0.066061094
11	0xbda0b7a5	-0.078475274
12	0xbdaaf94a	-0.08348329
13	0xbe248738	-0.16067207
14	0xbd7fc1fb	-0.062440854
15	0xbedb4e39	-0.42833117
16	0xbe291aca	-0.16514125
17	0xbdc1612c	-0.09442362
18	0xbd6e0e82	-0.058119304
19	0xbd633e3c	-0.055479273
20	0xbda1e54a	-0.079050615
21	0xbe006181	-0.12537195
22	0xbe8507e7	-0.25982592
23	0xbe892e04	-0.2679292
24	0xbde47714	-0.11155525
25	0xbd70738d	-0.058703948
26	0xbe008e87	-0.1255437
27	0xbe7de35b	-0.2479376
28	0xbda2c88f	-0.0794841
29	0xbde2a254	-0.11066118
30	0xbd8518ac	-0.064988464
31	0xbf1c85f7	-0.61141914
32	0xbe8e61e3	-0.27809057
33	0xbe9d48f1	-0.30719712
34	0xbdaeeea2	-0.08541609
35	0xbe266252	-0.16248444
36	0xbe0f7015	-0.140076
37	0xbdd6bcf2	-0.10485257
38	0xbe01b0d2	-0.12665108
39	0xbd20c3e1	-0.039249305
40	0xbe669940	-0.22519398
41	0xbe83a5f3	-0.25712547
42	0xbeee5243	-0.46547136
43	0xbc8c5a32	-0.017132852
44	0xbdb22e4a	-0.08700235
45	0xbe33c635	-0.17556079
46	0xbdc73f67	-0.0972889
47	0xbdc75769	-0.09733469
48	0xbef8e8d7	-0.48615143
49	0xbe31f245	-0.17377575
50	0xbda17f7f	-0.07885646
51	0xbe57b26f	-0.21064161
52	0xbe20f07b	-0.15716736
53	0xbe0682a6	-0.13135776
54	0xbe39fc6e	-0.181627
55	0xbd68f4dd	-0.056874145
56	0xbe044e40	-0.12920475
57	0xbdc59b1f	-0.096487276
58	0xbda59fa4	-0.0808709
59	0xbd36fb9d	-0.04467355
60	0xbd6d23e0	-0.05789554
61	0xbd523350	-0.051318467
62	0xbd804d2f	-0.062647216
63	0xbcc59f25	-0.024123738
64	0xbe94a053	-0.29028568
65	0xbe3bb0f8	-0.18329227
66	0xbcb0a605	-0.02156354
67	0xbe736345	-0.23768337
68	0xbdc16175	-0.094424166
69	0xbdd4c1d3	-0.103885315
70	0x3c7ccaae	0.015429182
71	0xbd685f88	-0.05673173
72	0xbd69adea	-0.057050623
73	0xbd5109be	-0.05103468
74	0xbe851948	-0.2599585
75	0xbeadf239	-0.33973864
76	0xbe283abd	-0.16428657
77	0xbe6a9b6c	-0.22910851
78	0xbe685a71	-0.2269075
79	0xbd83e551	-0.06440223
80	0xbd60ba6d	-0.05486529
81	0xbdefce47	-0.11709266
82	0xbd7b7424	-0.061390057
83	0xbe137c4a	-0.14402881
84	0xbdbbb464	-0.09165266
85	0xbe5a4ef2	-0.21319178
86	0xbdc1ec96	-0.09468953
87	0xbd7a0449	-0.061039243
88	0xbe82c22c	-0.25538766
89	0xbef554d2	-0.47916275
90	0xbe985c62	-0.29757982
91	0xbe564d55	-0.20927937
92	0xbebd8943	-0.37018785
93	0xbda6954c	-0.08133945
94	0xbc6f8d8d	-0.014621151
95	0xbe1fa1ed	-0.15589114
96	0xbe1b53ae	-0.1516864
97	0xbdc18ef0	-0.09451091
98	0xbddc608d	-0.10760603
99	0xbdc9efe6	-0.0986021
100	0xbc3c2025	-0.011482273
101	0xbd5ed4cb	-0.054402154
102	0xbb0a1552	-0.0021069837
103	0xbdc91893	-0.0981914
104	0xbdad05a6	-0.08448343
105	0xbda11423	-0.07865169
106	0xbd799dc6	-0.06094148
107	0xbe63f417	-0.22261082
108	0xbdfcc29a	-0.12341805
109	0xbd68a101	-0.05679417
110	0xbd4a10b1	-0.049332324
111	0xbd58b7d9	-0.052909706
112	0xbdc6a2b5	-0.09699003
113	0xbe73059b	-0.23732607
114	0xbda7da65	-0.08195952
115	0xbd41a0fc	-0.047272667
116	0xbe14ed02	-0.14543536
117	0xbe869627	-0.26286432
118	0xbe9fda0d	-0.31221047
119	0xbe512d0c	-0.2042734
120	0xbd995400	-0.07486725
121	0xbe5468f5	-0.20743163
122	0xbe70f3b5	-0.23530467
123	0xbd755fc1	-0.05990577
124	0xbdb3ebdb	-0.0878522
125	0xbcc9c6ab	-0.024630865
126	0xbe19c515	-0.15016587
127	0xbd86b43b	-0.06577345

model.4.running_mean f4 [128]
0	0xc00bc2b0	-2.1837578
1	0xc0961473	-4.6899962
2	0x4001ec1e	2.0300364
3	0xc0a6b7cf	-5.2099376
4	0xc0366e41	-2.8504794
5	0x3f57539f	0.8411197
6	0xbffc0748	-1.9689722
7	0xbfceae33	-1.6146911
8	0xc08486f2	-4.141473
9	0xbeece307	-0.46266958
10	0x3f9a8c4a	1.2074063
11	0xbe65d3d2	-0.22444084
12	0x3f006e22	0.5016805
13	0xc0127769	-2.2885382
14	0xbdfcd203	-0.12344744
15	0x3db8e657	0.09028309
16	0xbed579cc	-0.41694486
17	0xbed7736e	-0.42080253
18	0x4025d8b0	2.5913506
19	0xbf69957b	-0.91243714
20	0xbed00deb	-0.4063562
21	0xbdc70e64	-0.09719542
22	0xc088a1c8	-4.2697487
23	0xc023d2f6	-2.559751
24	0xbee46566	-0.4460861
25	0x3f8cb1ee	1.09918
26	0xbfb2dc5f	-1.3973502
27	0xbf93c079	-1.1543113
28	0xbf045f44	-0.51707864
29	0xbf9c1dd3	-1.2196602
30	0xbec2b0e0	-0.3802557
31	0xbe300e17	-0.17192875
32	0xc06bc256	-3.6837363
33	0xbf858990	-1.0432606
34	0x3fd3b514	1.6539636
35	0xc057d10b	-3.372134
36	0xbf8b229f	-1.086994
37	0xbf014e19	-0.5050979
38	0xc01e9852	-2.478047
39	0xbf8134df	-1.009426
40	0xc0115625	-2.2708828
41	0xc007f6e5	-2.1244442
42	0xc0b7fb08	-5.7493935
43	0x3f2fa70c	0.6861427
44	0xbea0e6f1	-0.31426194
45	0xc03c86e3	-2.9457328
46	0xbf103a29	-0.56338745
47	0x3f22ea09	0.6363836
48	0xc07f898c	-3.9927702
49	0xbfe3cc5c	-1.779674
50	0xbeb36e0f	-0.35044906
51	0xc094e666	-4.653125
52	0xbf8d73f5	-1.1051012
53	0xbfb40c2e	-1.4066217
54	0xc083cb22	-4.1185465
55	0xbf6ea0fe	-0.93214405
56	0xc0003c2f	-2.0036733
57	0xc0036e90	-2.0536232
58	0xc0055187	-2.083101
59	0xbfdf68b0	-1.7453823
60	0x3f13f5b0	0.57796764
61	0xbf5dbc8b	-0.8661582
62	0x3d438d69	0.04774228
63	0x4083affc	4.1152325
64	0xc08afb98	-4.343212
65	0xbf0cb8fd	-0.5496977
66	0x4007632f	2.1154287
67	0xc08e7cea	-4.4527483
68	0xbe4b36e6	-0.19845161
69	0x3e76e97f	0.24112509
70	0xc010a676	-2.26016
71	0xbf8da69f	-1.1066474
72	0x3eb5206b	0.35376295
73	0xbf48bd15	-0.78413516
74	0xc02be2c3	-2.6857154
75	0xc0eb754d	-7.358069
76	0xc0571fc7	-3.3613145
77	0xc0786d17	-3.8816583
78	0x3f91118c	1.133348
79	0x3e139084	0.14410597
80	0x4029954a	2.649737
81	0x3f1f38b6	0.6219591
82	0x3f473f61	0.77831084
83	0x3fddd567	1.733075
84	0xbf4da96a	-0.8033663
85	0xbfc43d18	-1.5331144
86	0xbfcbf59f	-1.5934333
87	0x3fe2bb3f	1.7713393
88	0x3eba07d4	0.36334097
89	0xc0d6d64b	-6.713659
90	0xc009be5e	-2.152244
91	0xbf234973	-0.6378395
92	0x3edef3b7	0.43545315
93	0xbe783396	-0.24238428
94	0xbf929d30	-1.145422
95	0xbff45526	-1.9088485
96	0xc05b00b2	-3.4219174
97	0x3fb81527	1.4381455
98	0xc06ecb95	-3.7311757
99	0xbf54fb1d	-0.8319567
100	0x40067ff0	2.1015587
101	0x3e942de3	0.2894126
102	0x405cac66	3.4480224
103	0x3f07bf66	0.53026426
104	0xc03b0298	-2.9220333
105	0x3f66ed49	0.9020582
106	0x3f5574d9	0.8338142
107	0xc0823a68	-4.0696297
108	0xbf3c0b96	-0.7345518
109	0xbfdd3228	-1.7280931
110	0x3dd6eeb7	0.1049475
111	0xbdbdb8c0	-0.09263754
112	0x3dc88706	0.09791379
113	0xbfd9d35a	-1.7017624
114	0x3f03157d	0.51204664
115	0xbf3f7ec5	-0.7480281
116	0x3f8d6712	1.104708
117	0xc088d289	-4.2757
118	0xc0663d84	-3.5975046
119	0xbfc593db	-1.5435747
120	0x4022f809	2.5463889
121	0xc08c77dd	-4.3896317
122	0x3de6f30d	0.11276827
123	0xc005cb37	-2.0905282
124	0xbf948f75	-1.160628
125	0x3fba5379	1.4556724
126	0x3f9bbd19	1.2167083
127	0xbfba5e37	-1.4560002

model.4.running_var f4 [128]
0	0x41eb7c77	29.435774
1	0x420a4b71	34.573673
2	0x43272c56	167.17319
3	0x4265b01d	57.421986
4	0x4246d668	49.70938
5	0x41d725fb	26.893545
6	0x42647f5e	57.124382
7	0x41f2976c	30.323936
8	0x423386bf	44.881588
9	0x420fda84	35.963394
10	0x41efb213	29.96195
11	0x422dbb97	43.433193
12	0x420692eb	33.643475
13	0x419190d0	18.19571
14	0x42044d2e	33.07537
15	0x42034b0d	32.82329
16	0x42105a94	36.088455
17	0x41cb3824	25.402412
18	0x4217c792	37.944893
19	0x439237ce	292.43597
20	0x423a0488	46.504425
21	0x425a6785	54.601093
22	0x42439dd8	48.904144
23	0x41b25469	22.291216
24	0x419f4366	19.90791
25	0x4209405a	34.312843
26	0x41bb7d70	23.436249
27	0x418e1b09	17.7632
28	0x41e73b62	28.903996
29	0x438b9afb	279.2108
30	0x428c3f09	70.123116
31	0x4327e07a	167.87686
32	0x4235ec91	45.48102
33	0x41c188be	24.191769
34	0x42118814	36.38289
35	0x419d43f2	19.658176
36	0x41c06cc0	24.0531
37	0x422a9313	42.643627
38	0x42463517	49.551846
39	0x42208dfa	40.13865
40	0x420ee699	35.725193
41	0x420fdc7f	35.96533
42	0x42084006	34.062523
43	0x4286c5e5	67.38651
44	0x420950a1	34.32874
45	0x42051ddf	33.27917
46	0x41eb4f54	29.413734
47	0x41e56455	28.67399
48	0x427d9085	63.391132
49	0x419d19ad	19.637537
50	0x425f9cec	55.903244
51	0x41e05d4e	28.045559
52	0x4200200c	32.031296
53	0x42948196	74.2531
54	0x4272a270	60.65863
55	0x42038764	32.882217
56	0x4253dbc6	52.964622
57	0x41cb8a39	25.442492
58	0x41deb6de	27.83929
59	0x41a0f94a	20.121723
60	0x419f68a9	19.926104
61	0x41a95f6a	21.171589
62	0x41c05061	24.039248
63	0x41cd4b12	25.661655
64	0x42976cc1	75.71241
65	0x41d2d48d	26.353785
66	0x44099446	550.3168
67	0x4236694b	45.602825
68	0x42239096	40.891197
69	0x41f960d6	31.172283
70	0x43c1c5e5	387.54605
71	0x41a525fd	20.643549
72	0x4195c99a	18.723438
73	0x41f79c11	30.951204
74	0x42206c90	40.106018
75	0x421eef83	39.7339
76	0x426098b5	56.149128
77	0x42065100	33.5791
78	0x41b0a3d0	22.079987
79	0x422694b6	41.645226
80	0x41e17ba8	28.185379
81	0x426b3a6a	58.807045
82	0x41e5ae4f	28.710112
83	0x421d5ffa	39.343727
84	0x42521289	52.5181
85	0x41e02f3c	28.023064
86	0x42900f2b	72.029625
87	0x423f321c	47.798935
88	0x421d62f0	39.34662
89	0x42822fcc	65.09335
90	0x42610a94	56.26033
91	0x420a550a	34.583046
92	0x42e282ed	113.255714
93	0x42137be2	36.87098
94	0x43a891ae	337.13812
95	0x41e85ecd	29.04629
96	0x42045a5f	33.088253
97	0x42768cc8	61.63748
98	0x4296eb10	75.45911
99	0x425857c9	54.085728
100	0x41f31d45	30.389292
101	0x424a78df	50.61804
102	0x43891ce0	274.2256
103	0x4286bbcf	67.36681
104	0x41c528bb	24.644888
105	0x42064138	33.56369
106	0x41deb36a	27.837605
107	0x42a14e1c	80.65256
108	0x41b902a1	23.126284
109	0x41c8ab43	25.083624
110	0x41a61c65	20.763865
111	0x41a792ea	20.946735
112	0x4212feed	36.74895
113	0x422d632d	43.34685
114	0x424cd5b4	51.208694
115	0x4209486a	34.320717
116	0x433c89e6	188.53867
117	0x42264969	41.57169
118	0x4224d79b	41.210552
119	0x42442c4f	49.04327
120	0x420a4c85	34.574726
121	0x41e2cd45	28.35023
122	0x41f84277	31.032454
123	0x423d8bf1	47.38666
124	0x41cfc321	25.970278
125	0x4263bde6	56.935448
126	0x421b9021	38.89075
127	0x420fa97b	35.91551

model.8.weight f4 [1, 6272]
0	0x3e09ecb4	0.13469201
1	0x3e991771	0.29900697
2	0x3ecfdfe9	0.40600517
3	0x3da5f77f	0.08103847
4	0x3df7e3e4	0.121040136
5	0x3e48244e	0.19545099
6	0x3efa7829	0.489198
7	0xbf1cbc90	-0.61225224
8	0x3e43ff59	0.19140376
9	0x3eb44586	0.35209292
10	0xbd09e67c	-0.033667073
11	0xbdb1c92a	-0.08680947
12	0xbe224f5f	-0.1585059
13	0xbea02efc	-0.31285846
14	0xbed2a070	-0.4113803
15	0x3ea5c76e	0.32378715
16	0xbe1d4b2d	-0.15360709
17	0xbd21be6a	-0.039488234
18	0xbcb0f2d5	-0.021600166
19	0xbe7bce49	-0.2459041
20	0xbd9c4fb0	-0.07632387
21	0xbe44b028	-0.19207823
22	0xbcc4426a	-0.02395745
23	0xbd975f99	-0.07391281
24	0xbe7bc8fe	-0.24588391
25	0x3e49cf4a	0.19707981
26	0xbd06a9c1	-0.032876734
27	0xbe689747	-0.22713958
28	0xbe2c75a3	-0.1684175
29	0x3cefa619	0.029254006
30	0x3d2f7ca6	0.042843483
31	0xbe239894	-0.15976173
32	0x3e833d36	0.25632638
33	0x3dc14ab7	0.09438079
34	0xbcec47aa	-0.028842766
35	0xbe73f8f9	-0.23825444
36	0x3e8f8521	0.28031257
37	0xbda6c7e2	-0.08143593
38	0xbbe09bb4	-0.0068544988
39	0x3e7c31fc	0.24628443
40	0xbc5fb8f1	-0.013654933
41	0xbd9862e1	-0.07440735
42	0xbeeb0e3c	-0.45909297
43	0x3cd1d834	0.025615789
44	0xbd7e0c7e	-0.062023632
45	0x3ee75c97	0.45187828
46	0x3c18ac90	0.009318486
47	0xbe16cf10	-0.14727426
48	0xbe8f6c21	-0.28012183
49	0x3f329b91	0.69768625
50	0xbe0aa91f	-0.13541077
51	0xbd8168fe	-0.06318854
52	0x3d8c993e	0.06865166
53	0x3d693017	0.056930628
54	0x3b331c30	0.0027330033
55	0xbd8dab21	-0.06917406
56	0x3f11a2b1	0.5688887
57	0xbda13768	-0.07871896
58	0xbda8f810	-0.08250439
59	0x3d65646c	0.056003973
60	0xbcd75683	-0.02628637
61	0xbcaadaab	-0.020856222
62	0xbddb24e0	-0.10700393
63	0x3e8af523	0.2714015
64	0xbe369a0d	-0.17832203
65	0x3d8c3a3a	0.06847043
66	0x3ba1f1f4	0.004942173
67	0x3d7f5d42	0.062344797
68	0x3d7042ef	0.058657583
69	0xbdadb3bc	-0.08481547
70	0x3eb9c7a8	0.36285138
71	0x3caa8aa8	0.02081807
72	0x3d814fbc	0.06314036
73	0x3ba73361	0.0051025604
74	0x3ccd6705	0.025073538
75	0x3d949d87	0.072566085
76	0xbc683020	-0.01417163
77	0x3e8bf98a	0.2733882
78	0x3d16cda7	0.03681722
79	0x3dbb4e70	0.0914582
80	0x3d32db0b	0.043665927
81	0x3d3a44d6	0.045475803
82	0x3cc11d9a	0.023573685
83	0x3c90ada8	0.01766093
84	0x3e8ceb6c	0.27523363
85	0xbd6d4308	-0.057925254
86	0x3d010b59	0.031504963
87	0x3cf1b083	0.029503113
88	0x3c1a2158	0.009407364
89	0xba5657e7	-0.00081765506
90	0xbd6a9db1	-0.057279292
91	0x3e82502c	0.2545179
92	0xbb67d212	-0.0035373014
93	0xbc55f373	-0.013058531
94	0xbb248289	-0.002510222
95	0xbd706d17	-0.058697786
96	0x3c964f24	0.018348284
97	0xbd711993	-0.05886228
98	0x3e5d747e	0.2162647
99	0x3d0df57e	0.034657948
100	0xbdaedde7	-0.08538418
101	0x3ea48ca9	0.32138565
102	0x3cf18039	0.029480087
103	0x3e53c616	0.20681033
104	0xbdfe0b08	-0.12404448
105	0x3eb96cef	0.36215922
106	0x3e87135b	0.26381955
107	0xbda1d86b	-0.079026066
108	0x3e3a1385	0.18171509
109	0x3e70b776	0.23507485
110	0xbde7d7c7	-0.11320453
111	0xbe1c853d	-0.15285201
112	0x3dd60104	0.104494125
113	0xbe56c0f8	-0.20972049
114	0xbdcfcd37	-0.101465635
115	0x3ed05ff9	0.4069822
116	0x3e2866e5	0.16445501
117	0x3e5be012	0.21472195
118	0xbed576e7	-0.41692278
119	0x3dda5caf	0.10662209
120	0x3def364a	0.11680277
121	0x3d1a4d6a	0.037671484
122	0x3e3d9cfc	0.18516916
123	0x3de77653	0.113018654
124	0x3dea7e91	0.11449922
125	0x3db5174c	0.08842334
126	0x3e82a847	0.2551901
127	0x3ed0518a	0.4068721
128	0x3cfdf004	0.030998237
129	0x3da68964	0.08131674
130	0x3e075a29	0.13217987
131	0x3e3d8f65	0.18511732
132	0xbe9b84ed	-0.30374852
133	0x3e57cc3a	0.21074
134	0x3d5aad19	0.053387735
135	0x3e59a4e5	0.21254309
136	0x3dc1d904	0.094652206
137	0x3d349b9c	0.044093713
138	0x3e91365f	0.28361794
139	0xbdc6a38a	-0.09699161
140	0x3c8731a3	0.01650316
141	0x3eaa2965	0.33234707
142	0x3e0ba9c7	0.13638984
143	0x3eb4764b	0.352465
144	0x3d52fb59	0.051509235
145	0x3e84f48c	0.25967824
146	0xbecba54e	-0.39774555
147	0xbf2a78ac	-0.6659038
148	0xbe12b37d	-0.14326282
149	0xbd1a5e1b	-0.037687402
150	0xbd511fca	-0.051055707
151	0x3cd2b13e	0.025719281
152	0xbe0aaf8e	-0.13543531
153	0xbe71f300	-0.23627853
154	0x3d82f59f	0.06394505
155	0x3e902cb2	0.281591
156	0x3d568927	0.052376892
157	0x3e69c0f2	0.22827509
158	0x3e58d3ce	0.21174547
159	0x3d6f1fdf	0.058380004
160	0x3da5b257	0.08090656
161	0x3e587cab	0.21141307
162	0x3e819d0c	0.2531513
163	0x3de4fec4	0.11181405
164	0x3e855b74	0.26046336
165	0x3e0d095b	0.137731
166	0x3e073d46	0.13206968
167	0x3dd47ad8	0.10374993
168	0x3e9c8d53	0.30576572
169	0x3e2ce48d	0.1688406
170	0x3df997f8	0.12187189
171	0x3e49ef65	0.19720228
172	0xbd1fd928	-0.039025456
173	0x3e61ec3a	0.2206277
174	0x3e17f3cb	0.14839093
175	0x3e0e2d66	0.13884506
176	0xb939fd95	-0.00017737442
177	0x3e42a8f7	0.19009767
178	0x3e1c346c	0.15254372
179	0x3d026e09	0.03184322
180	0x3e20eb3e	0.15714738
181	0x3e9757ef	0.29559276
182	0x3de262b9	0.11053986
183	0x3e2da7d1	0.16958548
184	0x3e112de8	0.14177668
185	0x3e47f912	0.19528607
186	0x3dc7a23d	0.09747741
187	0x3e1fb40a	0.15596023
188	0x3ebccf7a	0.36877042
189	0x3df54d7d	0.1197767
190	0x3e84ccdf	0.25937554
191	0x3e276d22	0.16350225
192	0x3dc3127f	0.09525012
193	0x3e03b506	0.12862024
194	0x3e85e398	0.26150203
195	0x3e113930	0.14181972
196	0x3e2651ee	0.16242191
197	0xba190c16	-0.0005838288
198	0x3e66dcef	0.22545217
199	0xbdeae090	-0.11468613
200	0xbe692c21	-0.2277074
201	0x3d8f25de	0.069896445
202	0xbcc966b5	-0.024585107
203	0x3c9ff9d1	0.019528301
204	0xbda56871	-0.08076561
205	0x3c1460c8	0.009056278
206	0x3c50ec07	0.012751586
207	0xbe11cbc6	-0.1423789
208	0xbe8cc0aa	-0.2749074
209	0xbe43eb01	-0.19132616
210	0xbd81c478	-0.063363016
211	0xbd771d0f	-0.060330447
212	0xbe113eb3	-0.14184074
213	0xbdafdbd4	-0.08586851
214	0xbd3352f2	-0.043780275
215	0xbe644dd0	-0.22295308
216	0xbd1bdf6a	-0.03805486
217	0x3c019d90	0.007911101
218	0x3c52461d	0.012834099
219	0xbcccfc32	-0.0250226
220	0xbc375d39	-0.01119166
221	0xbd4e3c74	-0.05035062
222	0xbe5307cd	-0.20608445
223	0xbe621586	-0.22078523
224	0x3d0f16b7	0.034933772
225	0xbdac3b04	-0.08409694
226	0x3d5b34c7	0.05351713
227	0x3e377088	0.17914021
228	0xbd9d71e0	-0.076877356
229	0xbe02e492	-0.12782505
230	0xbe471887	-0.1944295
231	0xbe32946c	-0.17439431
232	0x3d54c8fb	0.051949482
233	0x3dcae10e	0.09906207
234	0x3d8b05a4	0.06788185
235	0xbd411794	-0.047141626
236	0xbe3bf329	-0.18354477
237	0xbed24938	-0.41071486
238	0xbe1dbee0	-0.15404844
239	0xbd04acfc	-0.032391533
240	0x3dc068f0	0.09395015
241	0x3dcab622	0.0989802
242	0xbe8eed04	-0.27915204
243	0x3caf403e	0.021392938
244	0x3d8ef081	0.06979466
245	0x3ba1434c	0.0049213525
246	0x3e50747b	0.20356934
247	0xbe0bef41	-0.13665487
248	0x3d895e98	0.067074955
249	0xbe6c499a	-0.23074952
250	0x3c0a29c1	0.0084328065
251	0xbea302fc	-0.31838214
252	0xbee3c7c3	-0.44488344
253	0xbeb1de86	-0.34740084
254	0xbe71d3be	-0.2361593
255	0xbedb97fc	-0.42889392
