v3/discriminator.pth (torch, 560527 bytes, 9 tensors)

model.0.weight f4 [64, 1, 4, 4]
-1.0685 0.35041535 0.3452524 -0.6851936 -0.6391941 0.948464 0.43881875 -0.24236721
0.58331287 -0.6323358 -0.14800167 0.36018562 1.0236118 0.062834926 -1.4373976 0.09486503
-0.97192293 -0.36787942 -0.12970427 0.020427383 2.1050808 0.56204003 -0.0117850145 -0.08921287
-1.3857033 -0.0010181643 0.16965675 0.034161896 0.41067111 -0.10191742 -0.115978986 -0.070006266
-0.5896774 0.8082181 -0.090134546 -0.12189031 0.32989573 0.8201877 0.2096388 -0.9605694
-1.5400673 1.5812052 -0.610865 0.32572594 0.43200153 -0.3661487 -0.64136124 -0.1833974
-0.012616393 -0.53878975 1.5215101 -0.5594996 0.13242786 1.3689969 -3.451814 1.4609735
0.06301734 -1.3597926 2.9670718 -1.3051614 -0.23391262 0.7377756 -0.92504364 0.36093876
0.94250476 0.49402392 -0.0726343 -0.3335083 -0.0053948895 0.3464656 0.289356 -0.066814505
-0.078980856 -0.7467508 0.12604193 0.18059884 -0.6934357 -0.44788772 -0.04461617 0.12046465
-0.03727084 -0.03204179 0.16631685 -0.12349205 -0.17274533 0.28810063 0.39182127 0.1238994
0.14303431 0.3818841 -3.0202947 0.029569376 0.04330189 -0.033527575 0.12994003 0.0034822533
0.20895903 -0.34191754 0.80906934 -0.34051383 -0.050861157 -0.603107 1.0675399 -0.30267572
-0.20855811 -0.2868937 0.24707694 -0.1419245 0.4310132 -0.82873285 1.3569047 -0.8048727
0.9095472 0.16490327 -0.17141487 -0.65744936 0.4340182 -0.20742205 0.017076442 -0.70565337
0.2465094 0.21774617 0.05189809 0.17855449 -0.48212022 0.1016142 -0.023938378 0.31523946
-0.13451585 -0.1452698 -0.09107826 -0.0049710353 -0.36660933 -1.7367347 -0.20625725 -0.049521282
0.45823228 1.5908175 0.30833298 0.038668156 0.073932216 0.22127654 0.05826918 0.027632304
-0.1228553 -0.0052256957 0.007519988 0.014795803 -0.14178394 -0.08381447 -0.01564043 0.008665108
-0.34376124 -0.15169415 -0.033286538 0.030326866 2.4299471 -0.3853697 -0.1854387 -0.04575952
0.15385716 0.61461276 -0.596686 0.030203758 0.19220005 -0.09604844 -0.70953715 0.39581382
0.20592242 -1.8880254 1.4753134 0.3197116 -0.28625223 0.899686 0.08871245 -0.77364945
-0.064072356 -0.16200206 0.17899847 0.09267351 -0.067305416 -1.1362019 1.0815115 0.10187246
-0.15691529 -0.68447894 0.6973804 0.13255852 -0.07401756 0.00010333365 0.02231952 0.036736395
-0.21837303 -0.09433708 1.2726272 -0.6943806 -0.02484464 -1.009928 1.4109137 -0.21192525
0.40981612 -0.6506282 -0.6426641 0.595662 -0.22917916 1.0399328 -1.4374764 0.25116482
0.43547907 0.5054904 0.5134866 -1.083561 0.36926538 0.46462318 -0.45040157 -0.45040122
-0.66535646 -0.8663876 0.16003478 0.022430463 0.1159929 0.40672225 -0.07503519 -0.092613176
-0.4812275 -0.7365501 1.2632148 -0.275975 0.7262309 -0.8131191 0.68572086 -1.776918
0.10435757 -0.059403002 0.2906947 0.14228259 -0.7858486 0.1455964 0.7116713 -0.32752824
-0.22193022 -0.83018017 0.18070084 0.79497904 -0.38119322 1.2765907 0.87960047 -1.1414487
1.100905 0.046222966 -1.810319 0.009415049 -0.64295816 -0.9606347 0.65785956 0.24340719
00000000: 9cc4 88bf a469 b33e ecc4 b03e d968 2fbf
00000010: 39a2 23bf 89ce 723f daac e03e 1c2f 78be
00000020: fe53 153f c2e0 21bf c08d 17be 406a b83e
00000030: b605 833f 99af 803d a5fc b7bf 9948 c23d
00000040: f1cf 78bf b15a bcbe 32d1 04be 5457 a73c
00000050: a5b9 0640 dbe1 0f3f ef15 41bc 3db5 b6bd
00000060: ba5e b1bf ed73 85ba 80ba 2d3e 58ed 0b3d
00000070: 7c43 d23e 15ba d0bd 6486 edbd 725f 8fbd
00000080: 19f5 16bf 62e7 4e3f 7698 b8bd a0a1 f9bd
00000090: 18e8 a83e d2f7 513f 8eab 563e e0e7 75bf
000000a0: ed20 c5bf ef64 ca3f a661 1cbf 8dc5 a63e
000000b0: 4e2f dd3e d877 bbbe 4030 24bf 87cc 3bbe
000000c0: fdb4 4ebc 20ee 09bf d8c0 c23f 5e3b 0fbf
000000d0: 2b9b 073e 4a3b af3f 85ea 5cc0 2e01 bb3f
000000e0: 3c0f 813d af0d aebf 81e4 3d40 870f a7bf
000000f0: ca86 6fbe ddde 3c3f a9cf 6cbf f7cc b83e
00000100: fe47 713f b4f0 fc3e 4bc1 94bd 9ac1 aabe
00000110: 9dc7 b0bb f063 b13e 7826 943e 0bd6 88bd
00000120: b7c0 a1bd 0f2b 3fbf 2311 013e e7ee 383e
00000130: 0185 31bf 8a51 e5be 72bf 36bd 2cb6 f63d
00000140: 4fa9 18bd 413e 03bd f74e 2a3e 66e9 fcbd
00000150: 27e4 30be ed81 933e cc9c c83e f8be fd3d
00000160: 9677 123e 5086 c33e 824c 41c0 7a3b f23c
00000170: 535d 313d 3654 09bd 000f 053e 8436 643b
00000180: 5bf9 553e d10f afbe 2b1f 4f3f d457 aebe
00000190: ca53 50bd 3865 1abf 26a5 883f 50f8 9abe
000001a0: 4290 55be bbe3 92be bd01 7d3e a854 11be
000001b0: c3ad dc3e d627 54bf 0eaf ad3f 230c 4ebf
000001c0: 16d8 683f 67dc 283e 6187 2fbe 9a4e 28bf
000001d0: a237 de3e 7266 54be e5e3 8b3c b3a5 34bf
000001e0: f66c 7c3e daf8 5e3e 1793 543d fdd6 363e
000001f0: 76d8 f6be 1b1b d03d 6b1a c4bc 1167 a13e
00000200: 86be 09be 9bc1 14be 3d87 babd 11e4 a2bb
00000210: 38b4 bbbe 534d debf 1a35 53be d4d6 4abd
00000220: 6c9d ea3e e89f cb3f d2dd 9d3e 8062 1e3d
00000230: c669 973d 5196 623e aaab 6e3d 245d e23c
00000240: 8f9b fbbd 503c abbb 3b6a f63b 196a 723c
00000250: cf2f 11be eca6 abbd 5c20 80bc 19f8 0d3c
00000260: 7901 b0be b655 1bbe 7757 08bd 0c70 f83c
00000270: 4184 1b40 2d4f c5be a4e3 3dbe 566e 3bbd
00000280: bb8c 1d3e 4357 1d3f 6ac0 18bf df6d f73c
00000290: 17d0 443e 0bb5 c4bd 3aa4 35bf 1ca8 ca3e
000002a0: 54dd 523e d1aa f1bf 12d7 bc3f 3db1 a33e
000002b0: a78f 92be d251 663f dfae b53d e40d 46bf
000002c0: 5e38 83bd dee3 25be 604b 373e 9ccb bd3d
000002d0: 6cd7 89bd 106f 91bf f86e 8a3f 82a2 d03d
000002e0: 67ae 20be 033a 2fbf 8687 323f 6cbd 073e
000002f0: 8596 97bd d5b4 d838 6dd7 b63c e778 163d
00000300: 2e9d 5fbe cd33 c1bd 73e5 a23f edc2 31bf
00000310: fd86 cbbc 5245 81bf d298 b43f ef02 59be
00000320: 6bd3 d13e 928f 26bf a285 24bf 4e7d 183f
00000330: f1ad 6abe 851c 853f 3aff b7bf ad98 803e
00000340: 1df7 de3e d267 013f dc73 033f 20b2 8abf
00000350: 5a10 bd3e 17e3 ed3e 099b e6be fd9a e6be
00000360: cd54 2abf 94cb 5dbf 28e0 233e 17c0 b73c
00000370: b08d ed3d e63d d03e 0dac 99bd faab bdbd
00000380: 7363 f6be 8c8e 3cbf 06b1 a13f 984c 8dbe
00000390: 45ea 393f 9328 50bf 678b 2f3f 0d72 e3bf
000003a0: 6cb9 d53d 9050 73bd f0d5 943e 87b2 113e
000003b0: 602d 49bf 3917 153e 1730 363f c8b1 a7be
000003c0: ad41 63be b086 54bf a409 393e bf83 4b3f
000003d0: c22b c3be 5367 a33f 7f2d 613f fe1a 92bf
000003e0: 74ea 8c3f 4b54 3d3d 88b8 e7bf 9441 1a3c
000003f0: e898 24bf 28ec 75bf 7c69 283f bc3f 793e

model.0.bias f4 [64]
-0.62391555 -0.10912311 -0.69608104 -0.088448934 -0.3126806 -1.6227036 -0.3060434 -0.16839504
-0.04095621 -0.8806176 -0.36256203 -0.018165782 -0.58598554 -0.95745766 -1.0566815 -0.9058759
0.04553044 -0.14504814 -0.03760833 -0.31831044 -0.47209206 -0.62912023 -0.222475 -0.117412396
0.05052212 -0.92493284 -0.6740199 -0.7317509 -0.8302802 -1.2645608 -0.034139052 -0.03047312
-0.15199475 -0.3539828 -1.8535295 -0.40578106 -0.48248088 -0.5767288 -2.1105354 -0.27706835
-0.02392428 -0.030556144 -1.7773377 -0.2927047 -0.26169667 -0.39864424 -0.72095853 -0.16059056
-0.5824311 -0.7571032 -0.17986749 -0.21479388 -0.5860581 -1.396429 -0.052562807 -0.295828
-0.22143325 -0.3512428 -0.2194005 -0.54577243 -0.017459372 -0.21945107 -0.045294624 -0.031330094
00000000: eeb8 1fbf f07b dfbd 5e32 32bf b724 b5bd
00000010: ac17 a0be c0b4 cfbf b8b1 9cbe c06f 2cbe
00000020: b3c1 27bd 2870 61bf bba1 b9be 68d0 94bc
00000030: 2603 16bf f21b 75bf 5741 87bf 7ce7 67bf
00000040: 207e 3a3d 8087 14be 310b 1abd 96f9 a2be
00000050: 0db6 f1be 060e 21bf 7dd0 63be e975 f0bd
00000060: 48f0 4e3d 66c8 6cbf 918c 2cbf 0754 3bbf
00000070: 3e8d 54bf 21dd a1bf 64d5 0bbd c4a2 f9bc
00000080: 83a4 1bbe 3c3d b5be 7440 edbf 89c2 cfbe
00000090: bc07 f7be 80a4 13bf 0313 07c0 e7db 8dbe
000000a0: dafc c3bc e150 fabc cd7f e3bf 64dd 95be
000000b0: 1bfd 85be 191b ccbe bd90 38bf da71 24be
000000c0: 341a 15bf 84d1 41bf 2f2f 38be edf2 5bbe
000000d0: e707 16bf 2fbe b2bf 194c 57bd c576 97be
000000e0: 66bf 62be 19d6 b3be 86aa 60be beb7 0bbf
000000f0: f506 8fbc c8b7 60be db86 39bd fc53 00bd

model.3.weight f4 [128, 64, 4, 4]
-1.6445183 -0.4695974 -0.63650924 0.22142476 -0.096556485 -0.40550414 -0.8829248 -1.1692013
-0.2870499 -0.36995926 -0.7070449 0.31648076 -0.021155035 -0.29140353 -0.22801638 -0.6968208
1.1305827 0.17277695 0.62833214 0.251279 -0.038909268 -0.79542863 -0.65393364 0.031580016
-0.33458048 0.22376588 -0.5460966 -1.1054997 0.083002985 0.8570838 -0.7509809 -0.82138616
-0.7247952 -0.42780256 -0.2556127 0.03804129 -0.4640164 -0.2673197 0.3259589 1.8444872
-0.030185042 -0.39061588 -0.20889042 -0.17271551 0.25964338 0.10022863 0.096942216 -0.6330699
-0.33541736 -0.09924781 -0.3665945 -0.23787218 0.6089985 0.52858883 -0.137376 -1.3728195
0.62549263 -0.20667773 -0.881047 -1.5345412 -0.1888368 -0.23435004 0.3230184 -0.11914408
-0.27272207 -0.5012733 0.30085734 0.903369 -0.15148053 -0.97970486 -0.17053638 0.2984842
0.94897586 1.4128757 0.23407285 -1.1685069 0.3763152 0.75307685 0.085159205 -0.963171
-0.029574625 -0.07249827 -0.1448 0.5979012 -0.5033588 -0.26659867 -0.5437936 0.28012586
0.27320868 -0.1331949 -0.68219507 -0.7026705 0.52190816 -0.6137736 -1.022826 -0.6439454
0.00023332276 0.86196613 0.40137717 0.21598577 -0.13583684 -0.12575652 0.28497198 -0.036673
0.10588677 0.15525946 -0.056425657 -0.7190726 -0.01635163 0.035091102 0.20920792 -0.2986983
0.42768574 -0.16413715 -0.18911822 -0.14054753 0.5508542 0.6137502 -0.12739459 -0.023174813
0.73852 0.15052874 -0.21878226 0.8609029 0.84587324 -0.51127505 -1.4302328 -0.98213255
0.06924544 -0.16289413 0.290165 0.30246812 0.327036 -0.27793235 0.13453746 0.36676878
-0.2907989 -0.25006852 0.6726637 0.629376 0.6718168 0.7446894 -1.1732125 0.041538805
-0.11884399 -0.9629233 -0.32700416 -0.3539888 0.9118134 -0.71860284 -0.67548096 -0.27918422
0.14478801 -0.9148527 -0.29388517 -0.23394704 1.51855 0.19774832 -0.18897055 0.77719927
0.34042183 1.0015749 0.2853797 0.41278687 0.06280034 -0.21179605 -1.0198646 -0.45886558
0.1975392 -0.41247103 -0.41769657 -1.4442178 1.4111068 0.4436745 0.934566 0.7649995
-0.82806 0.64351034 0.31832924 -0.8468812 -1.1953163 -0.2490479 -0.20423847 0.6946296
-0.4620924 0.38057104 0.20398152 -0.80319047 -0.32760334 0.9956798 0.34605068 -0.3948061
-0.5655027 -0.74657685 0.52335775 0.25004676 -0.022601044 0.03857653 0.5363137 -0.06321231
0.2133198 0.5380108 0.13623565 -0.5839295 1.2033919 0.30752212 -0.17862456 0.108919285
0.8936101 -0.2765638 0.5474774 0.7336082 0.4418238 -0.22493972 0.20197368 0.9411146
-0.5181955 -1.3220731 -0.80102324 0.792673 0.82667756 -1.1405133 -1.3848107 -0.7135643
-0.07391637 0.7747653 -0.81625515 0.08409624 0.10467497 -0.36170176 -0.42365652 0.51284075
-0.096402906 -0.58636874 0.5882028 0.6798325 0.2846957 0.18194734 -0.17797911 -0.4866221
-0.24057843 -0.37912378 0.4713589 0.68974185 -0.31913164 -1.0778357 -0.4557491 -0.24936599
0.76486546 -0.96266174 -0.33697513 -1.5040714 -0.40899983 0.5131328 0.052587546 -0.9687313
00000000: 937f d2bf 126f f0be 45f2 22bf 2cbd 623e
00000010: 68bf c5bd 3d9e cfbe 5c07 62bf 63a8 95bf
00000020: 34f8 92be 4d6b bdbe e500 35bf c409 a23e
00000030: 534d adbc d832 95be 207d 69be d962 32bf
00000040: efb6 903f 71ec 303e 60da 203f a4a7 803e
00000050: 535f 1fbd 36a1 4bbf 3268 27bf 0c5a 013d
00000060: 224e abbe e222 653e fdcc 0bbf 0481 8dbf
00000070: 78fd a93d d869 5b3f 4940 40bf 5d46 52bf
00000080: 2e8c 39bf f008 dbbe abdf 82be 2fd1 1b3d
00000090: 8f93 edbe 21de 88be 16e4 a63e 2818 ec3f
000000a0: 9f46 f7bc cefe c7be 5fe7 55be 56dc 30be
000000b0: faef 843e ab44 cd3d a489 c63d de10 22bf
000000c0: d3bb abbe 7042 cbbd 46b2 bbbe c494 73be
000000d0: 53e7 1b3f 9951 073f 4bac 0cbe 8db8 afbf
000000e0: 4920 203f 54a3 53be 4c8c 61bf d96b c4bf
000000f0: 6f5e 41be 75f9 6fbe ab62 a53e d001 f4bd
00000100: 3aa2 8bbe 7253 00bf f909 9a3e 3143 673f
00000110: b61d 1bbe f0cd 7abf 17a1 2ebe ecd2 983e
00000120: 15f0 723f 1cd9 b43f cbb0 6f3e a291 95bf
00000130: 63ac c03e a5c9 403f f367 ae3d 6092 76bf
00000140: 7c46 f2bc f979 94bd 7446 14be 0e10 193f
00000150: 1fdc 00bf 9f7f 88be 0f36 0bbf a86c 8f3e
00000160: 02e2 8b3e 3e64 08be 56a4 2ebf 37e2 33bf
00000170: c69b 053f 4420 1dbf f6eb 82bf 9bd9 24bf
00000180: 1aa8 7439 d0a9 5c3f 4f81 cd3e 602b 5d3e
00000190: d018 0bbe 51c6 00be d9e7 913e 6d36 16bd
000001a0: 2adb d83d 56fc 1e3e 971e 67bd 2415 38bf
000001b0: dbf3 85bc b0bb 0f3d 9a3a 563e fcee 98be
000001c0: a0f9 da3e 9213 28be 35a8 41be b1eb 0fbe
000001d0: c804 0d3f bc1e 1d3f ba73 02be 1bd9 bdbc
000001e0: a60f 3d3f 3524 1a3e 7508 60be 2264 5c3f
000001f0: 268b 583f ece2 02bf de11 b7bf 0a6d 7bbf
00000200: 8ed0 8d3d b8cd 26be 8290 943e 1add 9a3e
00000210: 4371 a73e 264d 8ebe 30c4 093e 1ec9 bb3e
00000220: 98e3 94be fb08 80be b033 2c3f c91e 213f
00000230: 30fc 2b3f f7a3 3e3f d42b 96bf 9824 2a3d
00000240: 7a64 f3bd 2482 76bf 176d a7be 053e b5be
00000250: 9a6c 693f 5bf6 37bf 52ec 2cbf 3cf1 8ebe
00000260: 4f43 143e c933 6abf 1e78 96be d08f 6fbe
00000270: d95f c23f 897e 4a3e 7f81 41be 88f6 463f
00000280: c54b ae3e 9b33 803f 4a1d 923e cd58 d33e
00000290: 779d 803d 10e1 58be ec8a 82bf 6ef0 eabe
000002a0: b747 4a3e 672f d3be 53dc d5be 21dc b8bf
000002b0: 269f b43f 4e29 e33e b83f 6f3f 02d7 433f
000002c0: bdfb 53bf 18bd 243f 0dfc a23e 35cd 58bf
000002d0: 2000 99bf 6a06 7fbe e423 51be 3fd3 313f
000002e0: 6097 ecbe 35da c23e 88e0 503e e49d 4dbf
000002f0: a0bb a7be dfe4 7e3f 8e2d b13e 0624 cabe
00000300: c9c4 10bf a91f 3fbf c6fa 053f 2106 803e
00000310: d325 b9bc 6c02 1e3d db4b 093f 7575 81bd
00000320: 8170 5a3e 13bb 093f 5c81 0b3e 677c 15bf
00000330: bf08 9a3f 8a73 9d3e 5be9 36be 1311 df3d
00000340: a2c3 643f c599 8dbe 7b27 0c3f bfcd 3b3f
00000350: bb36 e23e 9956 66be 30d2 4e3e e3ec 703f
00000360: 76a8 04bf b139 a9bf dc0f 4dbf 9eec 4a3f
00000370: 24a1 533f 57fc 91bf 7a41 b1bf 26ac 36bf
00000380: 7761 97bd 0557 463f 19f6 50bf a63a ac3d
00000390: d55f d63d f930 b9be 82e9 d8be 8849 033f
000003a0: e36e c5bd 431c 16bf 7594 163f 8109 2e3f
000003b0: a3c3 913e 6750 3a3e 2840 36be 8826 f9be
000003c0: 315a 76be 831c c2be f455 f13e ec92 303f
000003d0: 3965 a3be 85f6 89bf f257 e9be cc59 7fbe
000003e0: 39ce 433f 0071 76bf 0188 acbe 6985 c0bf
000003f0: 6d68 d1be ac5c 033f 0a66 573d c6fe 77bf

model.3.bias f4 [128]
-0.032169674 -0.23555185 0.0726604 -0.27877432 0.10610751 -0.21716721 0.124339305 0.4493271
-0.41924477 0.41766176 0.772591 0.3207507 0.2334104 1.4679135 -0.2684649 -0.5104201
0.14056085 0.1574806 0.06234225 0.012311772 -0.05841484 0.12769918 -0.28135127 0.8296616
0.089238524 0.020492004 0.05570842 -0.09423445 -0.2185162 0.012641382 0.56175673 -0.10076534
0.70967996 -0.37475508 0.4281033 -0.2850994 0.40180048 0.07538187 -0.11498011 -0.31455895
0.36524338 -0.07918184 1.2879822 -0.11837325 -0.008848235 0.60907286 -0.28774044 0.1000458
-0.25806886 0.12415283 0.32839724 0.9944464 -0.07154783 -0.09807813 0.14096987 0.21392438
-0.29807508 0.43698508 -0.17317873 0.4017445 0.14393638 0.35417476 0.03391509 -0.03836423
0.016151018 1.1708599 0.15264249 0.2164743 0.8213231 0.7356984 -0.10965687 0.56596196
0.5625939 0.31437573 -0.31489277 0.24396576 0.08995527 0.5894115 0.05606522 0.16186789
0.008110745 1.3127126 -0.0882436 -0.028298013 0.6329313 -0.10302144 -0.42975459 -0.123691075
0.037832856 0.07470073 -0.00034390876 1.0955156 0.5244673 -0.02927102 0.7847353 0.45782694
0.036615625 0.03462972 0.2203606 -0.1720745 -0.108282186 0.068338715 0.5291187 0.35895658
0.07784263 -0.1332865 0.19218707 -0.012842184 -0.23168093 0.057850096 -0.21505588 -0.16971755
-0.13852091 -0.24053152 0.0047396566 -0.11888454 0.15089981 0.6075521 -0.117895685 -0.10330618
0.015953083 0.39092368 0.71521527 0.0030398555 1.2946515 0.08754083 -0.28726256 0.24344422
00000000: 59c4 03bd 8134 71be face 943d 82bb 8ebe
00000010: e54e d93d 1561 5ebe 9ba5 fe3d 340e e63e
00000020: 40a7 d6be c3d7 d53e 86c8 453f 7039 a43e
00000030: 2303 6f3e 97e4 bb3f 3b74 89be e4aa 02bf
00000040: 2fef 0f3e 9842 213e 965a 7f3d 51b7 493c
00000050: 6644 6fbd 93c3 023e 460d 90be b464 543f
00000060: b0c2 b63d d9de a73c 832e 643d fefd c0bd
00000070: b6c2 5fbe cd1d 4f3c 4acf 0f3f 0f5e cebd
00000080: 96ad 353f e6df bfbe 5b30 db3e 8cf8 91be
00000090: cbb8 cd3e cf61 9a3d b17a ebbd df0d a1be
000000a0: 2e01 bb3e 172a a2bd 9adc a43f ad6d f2bd
000000b0: 30f8 10bc 33ec 1b3f b752 93be d0e4 cc3d
000000c0: 9a21 84be d743 fe3d af23 a83e 0a94 7e3f
000000d0: ab87 92bd 30dd c8bd 685a 103e fe0e 5b3e
000000e0: 4c9d 98be 82bc df3e c455 31be 75b1 cd3e
000000f0: 0f64 133e 6556 b53e 8dea 0a3d d023 1dbd
00000100: 244f 843c bdde 953f 504e 1c3e 70ab 5d3e
00000110: 3b42 523f bb56 3c3f c893 e0bd e2e2 103f
00000120: 2706 103f dbf5 a03e a039 a1be 29d2 793e
00000130: 783a b83d ace3 163f a5a4 653d b2c0 253e
00000140: eee2 043c f706 a83f 10b9 b4bd 3cd1 e7bc
00000150: c907 223f e8fc d2bd cb08 dcbe bf51 fdbd
00000160: a0f6 1a3d b2fc 983d a74e b4b9 db39 8c3f
00000170: 7d43 063f c7c9 efbc 6ae4 483f 4b68 ea3e
00000180: 44fa 153d e5d7 0d3d 36a6 613e 4c34 30be
00000190: 0dc3 ddbd 2bf5 8b3d 5374 073f 28c9 b73e
000001a0: f56b 9f3d 427c 08be b0cc 443e 0668 52bc
000001b0: c43d 6dbe 39f4 6c3d 9c37 5cbe 70ca 2dbe
000001c0: 6dd8 0dbe e54d 76be 1f4f 9b3b bd79 f3bd
000001d0: 7b85 1a3e 8988 1b3f 4b73 f1bd 3192 d3bd
000001e0: 0ab0 823c 2627 c83e 5918 373f 5038 473b
000001f0: 24b7 a53f 9b48 b33d 1414 93be 7149 793e

model.4.weight f4 [128]
0.22256674 0.4854906 0.5636943 1.1726577 0.16485222 0.1861939 0.20149499 0.5782839
0.6848669 0.9198066 0.6471413 0.54456246 0.4653949 0.6038471 0.57505155 0.83686596
0.8669788 0.18530189 0.5814069 0.7148512 0.17779207 0.18799782 0.74140847 0.6465482
0.541165 0.87709206 0.18949564 0.1660688 0.7937642 0.28265658 0.6151831 0.19691558
0.53778887 1.5530356 0.19869398 1.2512877 0.6516684 0.1901874 1.3507347 0.8559181
0.621838 0.22125085 0.74493045 0.20401986 0.18165502 0.7606515 0.9593184 0.42543355
1.1859596 0.18317184 0.5437315 0.65586114 0.5848625 1.0303918 0.4830401 0.19698426
0.5415054 0.5412813 0.22140896 0.5966456 0.3985041 0.3957263 0.88551337 0.28191355
0.61199456 0.43792307 0.16792606 0.5203733 0.6153616 0.5790257 0.17540587 0.6551646
0.4764222 0.8017234 0.9090927 0.5821991 0.19229527 0.7065679 0.19423398 0.66059995
0.6563006 0.64171886 0.6604132 0.23910898 0.72014976 0.6588967 0.36527646 0.385649
0.5902515 0.4816705 1.1739718 0.6637218 0.7138706 0.24262983 0.7318117 0.46578535
0.1882508 0.16370901 0.17560706 0.9978373 0.21265155 0.6625093 0.6194568 0.58593166
0.36777028 0.29740423 0.18587354 0.18788497 1.0300651 0.19383994 0.1899155 0.5381293
0.30637866 0.47805947 0.64616174 0.24379288 0.17890087 0.65469056 0.3950233 0.46749917
0.14813612 0.6605052 0.6133673 0.17085408 0.73645496 0.21371484 0.20176743 0.520161
00000000: 89e8 633e 3992 f83e 454e 103f a619 963f
00000010: 05cf 283e 9da9 3e3e b454 4e3e 6a0a 143f
00000020: 7053 2f3f 7278 6b3f 0dab 253f 7268 0b3f
00000030: 3e48 ee3e b995 1a3f 9436 133f d93c 563f
00000040: 53f2 5d3f c7bf 3d3e 15d7 143f 7d00 373f
00000050: 200f 363e 8082 403e f2cc 3d3f 2f84 253f
00000060: ca89 0a3f 1b89 603f 250b 423e f10d 2a3e
00000070: 2134 4b3f 5db8 903e a47c 1d3f 3da4 493e
00000080: 88ac 093f dfc9 c63f 6f76 4b3e 322a a03f
00000090: bed3 263f 7cc0 423e e0e4 ac3f 731d 5b3f
000000a0: c630 1f3f 958f 623e c3b3 3e3f 95ea 503e
000000b0: c603 3a3e 0fba 423f e495 753f 6dd2 d93e
000000c0: 86cd 973f 6691 3b3e fd31 0b3f 84e6 273f
000000d0: 8cb9 153f e1e3 833f 0851 f73e 3eb6 493e
000000e0: 19a0 0a3f 6991 0a3f 08b9 623e c4bd 183f
000000f0: bb08 cc3e a39c ca3e 01b1 623f f956 903e
00000100: adab 1c3f 7437 e03e cff4 2b3e 2f37 053f
00000110: 5688 1d3f 073b 143f 999d 333e deb8 273f
00000120: 9ced f33e bf3d 4d3f 4dba 683f 000b 153f
00000130: 0de9 443e a2e1 343f 46e5 463e 141d 293f
00000140: 5103 283f b047 243f d710 293f fcd8 743e
00000150: bc5b 383f 74ad 283f 8405 bb3e c973 c53e
00000160: b91a 173f 849d f63e b544 963f ace9 293f
00000170: 39c0 363f f473 783e 0358 3b3f 6b7b ee3e
00000180: d1c4 403e 56a3 273e 56d2 333e 4472 7f3f
00000190: 54c1 593e 369a 293f b994 1e3f 9eff 153f
000001a0: 634c bc3e 5e45 983e a255 3e3e eb64 403e
000001b0: 2cd9 833f fa7d 463e 3579 423e d8c2 093f
000001c0: aadd 9c3e 36c4 f43e db6a 253f d7a4 793e
000001d0: ca31 373e cd99 273f 7e40 ca3e 0d5c ef3e
000001e0: ffb0 173e de16 293f a405 1d3f 5ff4 2e3e
000001f0: 5088 3c3f 10d8 5a3e 1f9c 4e3e 4529 053f

model.4.bias f4 [128]
-0.11228815 -0.2634039 -0.29266068 0.016384182 -0.1467962 -0.1005923 -0.11721196 -0.9773927
0.025298154 -0.074398085 -0.98631793 -0.76785994 -0.6245886 -0.8802418 -0.2710153 -0.05508864
-0.120680176 -0.17810784 -0.6467089 -0.36523986 -0.117978245 -0.13339937 -0.478458 -0.94586045
-0.602507 0.009682799 -0.14782716 -0.11160742 -0.888303 -0.112838484 -0.91886014 -0.13110353
-0.90176815 0.021305706 -0.124054976 -0.07319985 -0.95260423 -0.115371495 0.006441917 0.018331513
-0.8257281 -0.16558178 -1.0858687 -0.15513462 -0.15563056 -1.1242535 -0.03832254 -0.30058005
-0.015006128 -0.10690431 -0.51612294 -0.9738588 -0.81714326 -0.8521557 -0.75116944 -0.14717865
-0.5496829 -0.34379703 -0.16094644 -0.93323666 -0.4579693 -0.36063838 -0.601138 -0.16205578
-0.8450413 -0.3774393 -0.087454736 -0.42883947 -0.9251208 -0.9224525 -0.1458652 -1.0729312
-0.67294055 -1.0971239 -0.11961551 -0.8834644 -0.12516874 -0.9292101 -0.117658004 -0.3110242
-0.965001 -0.9894549 -0.6903874 -0.120901406 -1.0332593 -0.97374254 -0.23614149 -0.2538069
-0.9337679 -0.43867075 -0.017245699 -0.93119866 -1.0405982 -0.14388841 -1.0620345 -0.6268038
-0.108367115 -0.11735039 -0.08299072 -0.11093414 -0.13881674 -0.6811564 -0.9552067 -0.8407817
-0.30660746 -0.2061984 -0.10605886 -0.10983639 -0.0064003007 -0.12150305 -0.12282 -0.55904996
-0.19924852 -0.29455757 -0.69596064 -0.15204611 -0.11632518 -0.95686686 -0.20769338 -0.2955419
-0.08646231 -1.0060147 -0.73013335 -0.12534969 -0.8845784 -0.1022259 -0.14937897 -0.77008176
00000000: 54f7 e5bd e0dc 86be 9fd7 95be 1f38 863c
00000010: be51 16be 5603 cebd d30c f0bd 6836 7abf
00000020: 133e cf3c 065e 98bd 557f 7cbf 7892 44bf
00000030: 0ae5 1fbf 8757 61bf 84c2 8abe a0a4 61bd
00000040: 2b27 f7bd e761 36be b78e 25bf b800 bbbe
00000050: 949e f1bd d899 08be 72f8 f4be e923 72bf
00000060: e63d 1abf 9aa4 1e3c 0160 17be 6e92 e4bd
00000070: d367 63bf dd17 e7bd 6b3a 6bbf 0140 06be
00000080: 47da 66bf 4e89 ae3c 8910 febd cee9 95bd
00000090: dfdd 73bf e447 ecbd b716 d33b f82b 963c
000000a0: eb62 53bf 458e 29be bffd 8abf 9cdb 1ebe
000000b0: 9e5d 1fbe 8ae7 8fbf 18f8 1cbd a1e5 99be
000000c0: 43dc 75bc a6f0 dabd a220 04bf cf4e 79bf
000000d0: 4d30 51bf e026 5abf a44c 40bf 00b6 16be
000000e0: 05b8 0cbf 2a06 b0be 25cf 24be 99e8 6ebf
000000f0: f47a eabe 98a5 b8be 2ee4 19bf f3f1 25be
00000100: a054 58bf b93f c1be 781b b3bd d990 dbbe
00000110: b7d4 6cbf d925 6cbf b05d 15be cf55 89bf
00000120: d545 2cbf 8e6e 8cbf faf8 f4bd b92a 62bf
00000130: 3c2c 00be b7e0 6dbf aef6 f0bd 903e 9fbe
00000140: 4e0a 77bf eb4c 7dbf 3bbd 30bf 289b f7bd
00000150: d741 84bf 3147 79bf 13cf 71be faf2 81be
00000160: 6a0b 6fbf 7499 e0be da46 8dbc 0963 6ebf
00000170: 5232 85bf 7c57 13be bff0 87bf 3776 20bf
00000180: 94ef ddbd 6755 f0bd 0af7 a9bd 7031 e3bd
00000190: fa25 0ebe 4460 2ebf 6d88 74bf 783d 57bf
000001a0: a7fb 9cbe ac25 53be 6335 d9bd e7f1 e0bd
000001b0: 9db9 d1bb 97d6 f8bd 0d89 fbbd e61d 0fbf
000001c0: ce07 4cbe 40d0 96be 7a2a 32bf fab1 1bbe
000001d0: e53b eebd 3af5 74bf 93ad 54be 4551 97be
000001e0: 2713 b1bd 17c5 80bf 05ea 3abf ab5b 00be
000001f0: bb73 62bf d05b d1bd cdf6 18be 1424 45bf

model.4.running_mean f4 [128]
0.09051926 -1.3655385 -6.55915 0.33340266 -0.5978211 -0.47437423 0.5120929 -7.434356
1.9189869 2.031751 -6.0332074 -6.212722 -4.6671553 -3.5366595 -0.31339416 -0.11484845
1.3567839 -2.4880996 -4.356175 -5.36726 -2.3786924 -0.5304175 -4.79733 -3.4987195
-1.777648 -0.35557055 3.236587 0.5987229 -11.3204775 -0.68985057 -3.6343346 3.5801654
-8.8357 1.9197901 2.673019 -0.1493374 -6.5310893 -0.16195808 0.96511805 1.0576441
-6.460835 -0.07393474 -3.71466 -0.23876937 0.17102 -7.1847677 -0.33823687 0.4629169
1.7966826 2.1584332 -1.4195299 -5.5599785 -3.300373 -5.0873547 -6.1006374 4.3815775
-4.220215 -1.1353351 1.6865635 -6.4306498 -3.1921415 -3.2916763 -8.465481 3.9253337
-4.6709576 -5.8088946 1.3449116 -1.7930378 -6.324658 -6.795936 -0.6391684 -7.7069826
-5.051763 -8.058138 -0.08874521 -5.626541 1.2164297 -5.5676804 -0.12535676 -1.1103796
-5.5846434 -7.0469894 -2.5477633 0.060362842 -3.4258966 -5.156778 -4.123202 0.5669667
-4.938859 -2.7764223 -0.14153582 -1.9660028 -5.8172126 -3.5751595 -4.672131 -2.9032536
-1.6695557 1.3285719 -3.1089594 -0.0913692 -1.1003046 -5.0848513 -5.427248 -7.380206
-0.49547735 -2.8130128 2.6531656 -3.616414 0.52292275 1.0458784 -2.3842258 -5.0913177
0.08012066 0.21510723 -6.50878 -3.3318503 -3.9332855 -4.4116154 -4.084963 -5.87163
-0.26855338 -4.6954656 -5.367499 -4.0472546 -3.00481 -1.9185346 0.13181329 -3.4914513
00000000: 2962 b93d f7c9 aebf 8fe4 d1c0 c1b3 aa3e
00000010: ce0a 19bf 2ee1 f2be 8518 033f 3fe6 edc0
00000020: 5da1 f53f 3508 0240 0910 c1c0 9ece c6c0
00000030: 5659 95c0 a158 62c0 3375 a0be aa35 ebbd
00000040: 18ab ad3f 063d 1fc0 c965 8bc0 98c0 abc0
00000050: 7f3c 18c0 71c9 07bf ba83 99c0 05eb 5fc0
00000060: f889 e3bf 580d b6be 3e24 4f40 e745 193f
00000070: ad20 35c1 0c9a 30bf f098 68c0 6e21 6540
00000080: 075f 0dc1 afbb f53f be12 2b40 e7eb 18be
00000090: affe d0c0 57d8 25be fa11 773f e260 873f
000000a0: 29bf cec0 196b 97bd fdbc 6dc0 f57f 74be
000000b0: de1f 2f3e 9ee9 e5c0 622d adbe 7203 ed3e
000000c0: b2f9 e53f c523 0a40 28b3 b5bf 58eb b1c0
000000d0: 5039 53c0 9ccb a2c0 6c38 c3c0 e235 8c40
000000e0: 000c 87c0 a952 91bf 50e1 d73f e2c7 cdc0
000000f0: 0c4c 4cc0 d3aa 52c0 9c72 07c1 ab38 7b40
00000100: 7c78 95c0 77e2 b9c0 1026 ac3f 4382 e5bf
00000110: 9963 cac0 4f78 d9c0 8aa0 23bf 9a9f f6c0
00000120: 0ba8 a1c0 22ee 00c1 0cc0 b5bd a00c b4c0
00000130: f8b3 9b3f 702a b2c0 865d 00be eb20 8ebf
00000140: 66b5 b2c0 f080 e1c0 8e0e 23c0 073f 773d
00000150: e441 5bc0 5304 a5c0 45f1 83c0 bb24 113f
00000160: 220b 9ec0 e7b0 31c0 c4ee 10be fba5 fbbf
00000170: 9b26 bac0 6acf 64c0 1982 95c0 e8ce 39c0
00000180: 00b4 d5bf a50e aa3f 31f9 46c0 c61f bbbd
00000190: c8d6 8cbf 1ab7 a2c0 04ac adc0 a62a ecc0
000001a0: 35af fdbe 6708 34c0 77cd 2940 5473 67c0
000001b0: 44de 053f 58df 853f 2897 18c0 13ec a2c0
000001c0: 4d16 a43d 1245 5c3e ed47 d0c0 093d 55c0
000001d0: f3ba 7bc0 f42b 8dc0 04b8 82c0 65e4 bbc0
000001e0: d47f 89be 4141 96c0 8dc2 abc0 1c83 81c0
000001f0: cf4e 40c0 8b92 f5bf 10fa 063e f073 5fc0

model.4.running_var f4 [128]
85.99088 127.6332 316.7343 789.3698 80.84294 73.84301 90.002625 59.32015
886.1048 941.77075 66.93033 80.75684 51.61124 36.344162 158.01045 854.66693
1015.0419 89.93144 62.1196 175.4751 72.56701 73.662605 328.4575 37.423145
70.142555 710.0138 73.39038 67.73169 233.65172 238.82217 37.576363 96.259705
55.68215 1024.3647 61.778862 966.01337 37.88403 75.331955 1006.5834 1088.9485
61.533195 86.01178 41.96924 72.83467 82.32937 41.16882 800.7464 102.17898
838.4653 85.520645 59.90494 40.852173 42.423397 257.33063 45.278587 72.32387
82.20606 143.19588 87.67939 50.66355 63.06954 76.5346 381.32996 115.596054
55.595497 44.451595 87.57843 77.98685 46.446888 64.253296 74.32089 73.25923
44.468414 152.17917 954.91956 47.877254 65.06883 42.105785 70.52869 301.5407
39.18389 42.413807 54.52674 76.27499 52.32344 53.176468 76.461586 96.23467
62.347347 59.728535 996.6051 50.3008 47.452198 101.88106 34.544483 49.760586
72.365234 69.083275 67.410416 1089.8175 76.883675 58.87255 61.28982 41.095863
71.28251 122.35591 68.46864 85.86812 1067.6305 83.29733 81.4841 152.44908
83.90301 126.22848 114.38191 92.06293 75.35833 42.620964 124.5515 159.92807
70.12397 55.03061 77.331505 76.49496 48.460896 84.40785 75.29998 47.229958
00000000: 55fb ab42 3344 ff42 fe5d 9e43 ab57 4544
00000010: 96af a142 9faf 9342 5801 b442 d547 6d42
00000020: b586 5d44 5471 6b44 54dc 8542 8183 a142
00000030: e971 4e42 6c60 1142 ad02 1e43 afaa 5544
00000040: aec2 7d44 e6dc b342 787a 7842 a079 2f43
00000050: 4f22 9142 4153 9342 8f3a a443 4db1 1542
00000060: fd48 8c42 e280 3144 e0c7 9242 a076 8742
00000070: d7a6 6943 7ad2 6e43 324e 1642 f884 c042
00000080: 86ba 5e42 ac0b 8044 8e1d 7742 db80 7144
00000090: 3f89 1742 f6a9 9642 56a5 7b44 5a1e 8844
000000a0: fe21 7642 0806 ac42 80e0 2742 5aab 9142
000000b0: a3a8 a442 dfac 2442 c52f 4844 a35b cc42
000000c0: c79d 5144 920a ab42 a99e 6f42 a068 2342
000000d0: 8fb1 2942 52aa 8043 461d 3542 d2a5 9042
000000e0: 8169 a442 2532 0f43 d95b af42 7aa7 4a42
000000f0: 3547 7c42 b711 9942 3caa be43 2e31 e742
00000100: ca61 5e42 6fce 3142 2828 af42 44f9 9b42
00000110: 9dc9 3942 b081 8042 4ca4 9442 ba84 9242
00000120: a8df 3142 de2d 1843 daba 6e44 4f82 3f42
00000130: 3e23 8242 536c 2842 b00e 8d42 36c5 9643
00000140: 4ebc 1c42 bda7 2942 621b 5a42 cb8c 9842
00000150: 344b 5142 b4b4 5442 55ec 9842 2778 c042
00000160: af63 7942 05ea 6e42 ba26 7944 0534 4942
00000170: 0dcf 3d42 1ac3 cb42 8d2d 0a42 d70a 4742
00000180: 00bb 9042 a32a 8a42 22d2 8642 293a 8844
00000190: 71c4 9942 7e7d 6b42 c728 7542 2a62 2442
000001a0: a590 8e42 3ab6 f442 f2ef 8842 7abc ab42
000001b0: 2d74 8544 3c98 a642 dcf7 a242 f772 1843
000001c0: 57ce a742 fb74 fc42 8ac3 e442 3820 b842
000001d0: 77b7 9642 de7b 2a42 5e1a f942 96ed 1f43
000001e0: 793f 8c42 581f 5c42 bba9 9a42 6bfd 9842
000001f0: f5d7 4142 d2d0 a842 9799 9642 7aeb 3c42

model.8.weight f4 [1, 6272]
0.65010834 0.78445786 0.058652192 -1.1954175 0.09777188 0.11568044 -0.026129695 0.45666564
0.25971738 -0.48794338 -0.9535727 0.3982578 0.051718313 -0.30840254 0.0708061 -0.09984311
-0.12897697 -0.82990134 -0.33008918 -0.14954777 -0.1638541 -0.23157082 0.13511014 -0.08303763
-0.35419747 -0.10250381 0.34023333 0.5724007 -0.29636058 -0.10809874 -0.02267658 -0.842326
0.24385762 0.3559791 0.667029 0.39365676 0.022023935 -0.055542924 -1.0360692 0.16274358
-0.015408892 0.26456183 0.098690085 0.033159927 0.040467404 -0.783624 0.057420377 0.24184088
0.06831467 -0.09433438 -0.041340996 0.090594746 -0.06779201 -0.15037525 -0.043697257 0.0373528
0.19499074 0.0034988571 -0.21484543 -0.06600501 -0.09559974 0.02596964 -0.038672484 -0.17361777
-0.3435058 -0.04889917 -0.09812866 -0.23376761 0.17660165 -0.19971581 0.058160175 -0.06372371
-0.11291923 -0.00033052312 0.049600314 0.053670954 0.00941816 0.39377204 -0.02732936 0.22639883
-0.2336365 0.02094928 0.28974602 0.24901071 0.2810286 0.007177977 0.3281847 0.33789784
0.45146117 0.24479203 0.24448447 0.01280751 0.13321027 0.71465963 0.071597315 0.15403152
0.32498342 0.49969012 -1.56123 -0.36858106 0.06724565 0.013419153 -0.031891588 -0.38401
-3.0396311 0.5536743 0.07345477 -0.017291991 -0.00994695 -0.00018952665 -0.033914037 0.095078215
0.10440963 -0.0049376898 0.045094885 -0.029333787 -0.016107248 -0.009482777 -0.009922046 0.1509506
0.13503489 0.08012759 0.056111794 0.021916475 0.0046486445 0.038238823 0.042233903 0.070918694
0.0535343 0.055830486 0.04023908 -0.061904848 0.061423223 -0.07647 0.025604356 -0.0037582682
0.017118625 0.043088097 0.05684257 0.10695643 0.011738414 0.022094065 0.08499168 0.018904556
-0.019542133 0.019672893 0.12265962 -0.015925018 -0.022286689 0.0150067145 0.0009947163 0.018894378
0.021360662 -3.5444305 0.0063262307 0.011105399 0.0032222066 -0.0023986246 0.015899176 0.021451123
-1.3216337 -0.007768389 0.014760892 -0.014084825 0.0022889778 0.013861667 0.013973138 -0.9998992
-0.015383778 -0.013156628 -0.0058962163 0.00052773877 -0.008676918 0.027633052 -1.4592156 -0.0019660366
0.004523663 -0.007423509 -0.038600437 -0.019701226 0.027919678 -0.92010933 -0.0064136204 -0.005903132
-0.023337554 0.0067351 -0.006858538 -0.015460494 -1.4146036 -0.0052401284 -0.015211062 0.029846843
-0.006837784 0.03032951 0.017843205 -2.053588 0.16908115 0.13644998 0.075258724 0.8188193
-0.64057815 0.51940995 -0.5309315 0.52144116 -0.4873123 -0.6692033 0.1323661 -0.18047291
0.2353085 -0.6861386 -0.18619578 -0.27610657 -0.029151892 0.37526232 0.19105099 -0.32243913
-0.85918385 -0.76056784 0.4452833 0.18387382 0.50467616 0.61670184 0.17078954 -0.045349274
-0.09623479 -0.0034338182 -0.010629736 -0.41328564 -0.47901633 -0.33292854 0.20090117 -0.21012086
0.6787406 0.47171453 0.1469021 -0.12311446 0.31204066 0.29675686 -0.6240372 0.15195355
0.0111857895 0.45843792 0.17938545 0.04514801 -0.060509164 -0.28592917 -0.323572 -0.32376504
2.106415 0.028335057 0.27637017 0.09817755 -0.5670262 0.0712049 0.12329362 0.073322274
00000000: 806d 263f 3bd2 483f 483d 703d 7103 99bf
00000010: a03c c83d dee9 ec3d f10d d6bc 14d0 e93e
00000020: adf9 843e b7d3 f9be 571d 74bf 72e8 cb3e
00000030: 95d6 533d f0e6 9dbe ca02 913d 8b7a ccbd
00000040: 8a12 04be 6a74 54bf 7301 a9be 0d23 19be
00000050: 5fc9 27be e720 6dbe 505a 0a3e a20f aabd
00000060: 5f59 b5be 84ed d1bd 1033 ae3e da88 123f
00000070: 93bc 97be df62 ddbd 3cc4 b9bc ada2 57bf
00000080: d0b5 793e e542 b63e 6ac2 2a3f 618d c93e
00000090: 8a6b b43c fa80 63bd ea9d 84bf 41a6 263e
000000a0: 9475 7cbc a674 873e 071e ca3d b4d2 073d
000000b0: 26c1 253d 959b 48bf a131 6b3d 23a5 773e
000000c0: 90e8 8b3d 6232 c1bd 2d55 29bd bd89 b93d
000000d0: 8ad6 8abd f8fb 19be e5fb 32bd 40ff 183d
000000e0: a7ab 473e 154d 653b 7100 5cbe a22d 87bd
000000f0: ccc9 c3bd 48be d43c 0a67 1ebd dbc8 31be
00000100: fedf afbe 7f4a 48bd aef7 c8bd c760 6fbe
00000110: 10d7 343e 4d82 4cbe 5d39 6e3d 9481 82bd
00000120: 3242 e7bd 104a adb9 b329 4b3d 13d6 5b3d
00000130: a04e 1a3c 7d9c c93e d2e1 dfbc 18d5 673e
00000140: 683e 6fbe d39d ab3c 9759 943e aafc 7e3e
00000150: fbe2 8f3e 3c35 eb3b d307 a83e f200 ad3e
00000160: eb25 e73e c3aa 7a3e 235a 7a3e 97d6 513c
00000170: 4668 083e eff3 363f 9da1 923d 70ba 1d3e
00000180: 3a64 a63e 62d7 ff3e 62d6 c7bf a8b6 bcbe
00000190: 16b8 893d 02dc 5b3c c1a0 02bd f59c c4be
000001a0: 5189 42c0 99bd 0d3f 746f 963d efa7 8dbc
000001b0: 88f8 22bc acbb 46b9 72e9 0abd 5eb8 c23d
000001c0: b7d4 d53d 58cc a1bb 6ab5 383d 694d f0bc
000001d0: 59f3 83bc a65d 1bbc 1490 22bc cb92 1a3e
000001e0: 9646 0a3e ef19 a43d 7bd5 653d 2e8a b33c
000001f0: a853 983b 50a0 1c3d 75fd 2c3d d23d 913d
00000200: c846 5b3d 82ae 643d bcd1 243d f08f 7dbd
00000210: eb96 7b3d 4e9c 9cbd 3ac0 d13c 474d 76bb
00000220: 5c3c 8c3c 257d 303d c1d3 683d f90b db3d
00000230: 7a52 403c 9dfe b43c 1e10 ae3d badd 9a3c
00000240: d316 a0bc 0c29 a13c f834 fb3d 2f75 82bc
00000250: 9392 b6bc b9de 753c 2461 823a 62c8 9a3c
00000260: 8efc ae3c f3d7 62c0 454c cf3b 6bf3 353c
00000270: a82b 533b 3e32 1dbb fd3e 823c 44ba af3c
00000280: 4b2b a9bf f88d febb abd7 713c 0ac4 66bc
00000290: ad02 163b 0c1c 633c 97ef 643c 65f9 7fbf
000002a0: 3e0c 7cbc e68e 57bc 0c35 c1bb f357 0a3a
000002b0: a229 0ebc b65e e23c 94c7 babf 9fd8 00bb
000002c0: 3c3b 943b e840 f3bb 7e1b 1ebd 7764 a1bc
000002d0: cfb7 e43c 498c 6bbf 5929 d2bb 0f6f c1bb
000002e0: 662e bfbc 1db2 dc3b 96bd e0bb 034e 7dbc
000002f0: bb11 b5bf 62b5 abbb d137 79bc 5e81 f43c
00000300: 7d0f e0bb 9875 f83c ea2b 923c fc6d 03c0
00000310: 9c23 2d3e 8bb9 0b3e 3f21 9a3d 249e 513f
00000320: eefc 23bf 0df8 043f 20eb 07bf 2b7d 053f
00000330: ff80 f9be e850 2bbf fb8a 073e e4cd 38be
00000340: b6f4 703e c7a6 2fbf 1baa 3ebe d75d 8dbe
00000350: f3cf eebc 6222 c03e dfa2 433e be16 a5be
00000360: 79f3 5bbf 93b4 42bf 2cfc e33e 6b49 3c3e
00000370: 7532 013f 2ce0 1d3f 74e3 2e3e 29c0 39bd
00000380: bf16 c5bd e909 61bb 5828 2ebc 2d9a d3be
00000390: a141 f5be 9c75 aabe 09b9 4d3e ec29 57be
000003a0: f2c1 2d3f 9184 f13e 816d 163e 6f23 fcbd
000003b0: cbc3 9f3e 84f0 973e e7c0 1fbf b699 1b3e
000003c0: 9a44 373c 60b8 ea3e d2b0 373e 1fed 383d
000003d0: 75d8 77bd 4f65 92be 3bab a5be 88c4 a5be
000003e0: 81cf 0640 ec1e e83c 6480 8d3e 5011 c93d
000003f0: a128 11bf e0d3 913d 5e81 fc3d fd29 963d
