v4/discriminator.pth (torch, 560527 bytes, 9 tensors)

model.0.weight f4 [64, 1, 4, 4]
0	0x3d843db2	0.0645708
1	0x3e1fbd46	0.15599546
2	0x3e6a3c93	0.2287467
3	0xbedc63a5	-0.43044773
4	0xbe86d6f9	-0.26335886
5	0x3e864b4b	0.2622932
6	0xbeb35247	-0.3502371
7	0xbea0a0ac	-0.31372583
8	0xbe650ef8	-0.22368991
9	0x3cb86048	0.022506848
10	0xbe6eab34	-0.23307496
11	0xbe961386	-0.2931177
12	0x3c7415b0	0.014897749
13	0x3e12b757	0.14327751
14	0xbeac6343	-0.3366948
15	0x3e1b836e	0.15186855
16	0xbec3eb34	-0.38265383
17	0x3e24e6bc	0.16103643
18	0x3f13e3fb	0.57769746
19	0xbe18a81c	-0.14907879
20	0x3f3bcddc	0.7336099
21	0xbfa6e8a2	-1.3039744
22	0xbec02ed7	-0.37535736
23	0x3f13e870	0.57776546
24	0x3dd6ecf4	0.10494414
25	0x3fb8b6f8	1.4430838
26	0xbf36cae0	-0.7140331
27	0xbee6930c	-0.45034063
28	0xbebd2e96	-0.36949605
29	0xbe8dc64a	-0.27690345
30	0x3f119dd6	0.56881464
31	0x3da9e7cb	0.08296164
32	0x3d41208a	0.047150172
33	0xbf2bb15d	-0.6706751
34	0xbe2d822d	-0.1694419
35	0x3de59f42	0.11212017
36	0xbb48379f	-0.003055073
37	0x3f8dd8f1	1.108183
38	0x3e733488	0.23750508
39	0x3e1048f7	0.14090334
40	0x3e6f7d69	0.23387684
41	0xbf1f4d39	-0.6222721
42	0xbc9dcd25	-0.01926286
43	0xbf07d1f1	-0.5305472
44	0xbdd07da1	-0.10180212
45	0x3deb4001	0.11486817
46	0x3d3d0fb7	0.046157565
47	0x3ef61ae3	0.48067388
48	0xbf1a1d8f	-0.6020135
49	0x3fd838ae	1.6892297
50	0xbfecd9a7	-1.8503922
51	0x3fa129cf	1.2590884
52	0x3d225126	0.03962817
53	0x3e7b57f6	0.24545273
54	0x3ce61ee5	0.028090904
55	0x3c9782d9	0.01849501
56	0xbeaa6f3f	-0.33288
57	0x3d30359e	0.043019883
58	0xbe91070f	-0.28325698
59	0x3dc1e12f	0.094667785
60	0x3d04522a	0.03230492
61	0xbcc37e43	-0.023863917
62	0x3d8087d0	0.06275904
63	0xbe90d878	-0.28290153
64	0x3e9fc6ee	0.3120646
65	0xbf53db9f	-0.8275699
66	0x3f9c039d	1.2188603
67	0xbf083be1	-0.5321637
68	0x3d2103b0	0.039310157
69	0xbe85fc58	-0.26169086
70	0x3eb20edf	0.3477697
71	0xbe1ee7f4	-0.1551817
72	0xbe01ba81	-0.12668802
73	0x3f068d18	0.5255904
74	0xbf3cc853	-0.7374317
75	0x3ea8da99	0.32979277
76	0xbe44aff8	-0.19207752
77	0x3f1ddf08	0.61668444
78	0xbf48e57c	-0.78475165
79	0x3ebeaaf0	0.3723979
80	0x3eb7b452	0.3587976
81	0x3e11a902	0.14224628
82	0xbe535132	-0.20636442
83	0xbe56ddc9	-0.20983042
84	0xbe68e552	-0.22743729
85	0xbf169e43	-0.5883524
86	0x3f306475	0.68903285
87	0x3e3af8c7	0.18258964
88	0xbe36ed81	-0.17864038
89	0x3f9f6309	1.2452098
90	0xbf27b850	-0.65515614
91	0xbf065f52	-0.524892
92	0xbe22c9ca	-0.15897289
93	0xbf05702b	-0.5212428
94	0x3e4e1d4e	0.20128366
95	0x3f14c0e0	0.58106804
96	0xbea4b272	-0.32167393
97	0x3f66ab98	0.9010558
98	0xbf8d6eb5	-1.104941
99	0x3f1b679f	0.6070499
100	0xbe9c843b	-0.30569634
101	0x3e9c6874	0.3054844
102	0xbe8846be	-0.26616472
103	0xbf3500e0	-0.7070446
104	0xbe8d9ee7	-0.27660295
105	0x3f090e60	0.5353756
106	0x3f0447e3	0.5167219
107	0xbe7f932d	-0.24958487
108	0x3ec90152	0.3925882
109	0xbf905e8f	-1.1278857
110	0x3f616906	0.8805088
111	0xbe70a5f5	-0.23500808
112	0xbea84f10	-0.3287282
113	0xbad61487	-0.0016333022
114	0x3f446218	0.7671218
115	0xbe5e5b78	-0.2171458
116	0xbe147715	-0.14498551
117	0xbf2fbddd	-0.68649083
118	0x3ec47c1e	0.38375944
119	0x3d99f1a7	0.07516795
120	0x3eb010be	0.34387773
121	0xbeceaf1e	-0.4036798
122	0x3aedf1f4	0.0018153773
123	0x3e641522	0.22273687
124	0x3f0ef4a1	0.55842024
125	0xbed43034	-0.41443026
126	0xbd2e5af2	-0.0425672
127	0x3e4302a8	0.19043982
128	0xbd5a5a88	-0.053308994
129	0xbd4491d7	-0.047990646
130	0xbd6b4248	-0.057436258
131	0x3e8a0771	0.26958802
132	0xbe20ef77	-0.15716349
133	0x3e8a4b3a	0.27010518
134	0x3ef39ac5	0.47579017
135	0xbf9526fe	-1.1652524
136	0xbd0fbbe3	-0.035091292
137	0x3e7e56be	0.24837777
138	0x3eda644f	0.42654654
139	0x3e8082f6	0.25099915
140	0x3e2847b4	0.16433603
141	0x3d9fce32	0.078030005
142	0xbfd73bd1	-1.681513
143	0x3f4803cd	0.781308
144	0xbb55f589	-0.003264757
145	0x3d62d126	0.05537524
146	0xbe43de63	-0.19127803
147	0x3a8a81d2	0.0010567254
148	0x3eaacc42	0.3335896
149	0x3f773d91	0.9657832
150	0x3f2f0745	0.6837047
151	0x3e19e03b	0.15026943
152	0xbe8fdb5d	-0.28097048
153	0xbf535d7f	-0.8256454
154	0xbf18d16d	-0.5969456
155	0xbcbb3d50	-0.022856385
156	0xbbccbac3	-0.0062478497
157	0xbdd3cbcb	-0.10341605
158	0xbcfc496e	-0.030796733
159	0xbd7bf458	-0.06151232
160	0xbe1e667f	-0.15468787
161	0x3f282701	0.65684515
162	0xbf2a202e	-0.6645535
163	0xbdc0548a	-0.093911245
164	0xbd896ae1	-0.06709839
165	0xbd6595d9	-0.05605111
166	0x3fa1943c	1.2623363
167	0xbf4bc537	-0.795978
168	0xbe1e0a96	-0.15433726
169	0xbeca6dc2	-0.39536864
170	0x3ee57758	0.44817615
171	0x3e236c82	0.15959361
172	0x3eaf91f5	0.34291044
173	0xbeb6273c	-0.35576808
174	0xbeea62a6	-0.45778388
175	0x3f13616f	0.57570547
176	0x3e10c5a6	0.14137897
177	0xbea6cee0	-0.32579708
178	0x3dae3ac1	0.085073
179	0x3d256365	0.040377993
180	0x3ccd3663	0.025050348
181	0x3e1293ab	0.14314143
182	0x3e3333a7	0.17500173
183	0x3e9071f8	0.2821195
184	0xbea2c567	-0.3179123
185	0xbef73393	-0.48281536
186	0x3eaa161a	0.33219987
187	0x3eecd1e7	0.46253893
188	0xbce5fece	-0.028075602
189	0xbf228b7b	-0.6349408
190	0xbf3e0930	-0.7423277
191	0xbe73f754	-0.23824817
192	0x3f183f74	0.5947182
193	0xbf7a1a96	-0.97696817
194	0x3eab1643	0.33415422
195	0x3ce6719e	0.028130349
196	0xbebf081f	-0.37310883
197	0x3fb667b1	1.4250394
198	0xbfa34aa1	-1.275715
199	0x3ea92083	0.33032617
200	0xbe57fcea	-0.21092573
201	0xbe2b8d9f	-0.16753243
202	0x3f5d9ca3	0.86567134
203	0xbec0fd3d	-0.37693205
204	0x3dc604df	0.09668898
205	0xbe525f9b	-0.20544283
206	0xbc9cfb7b	-0.019162884
207	0x3d8bb9d1	0.06822551
208	0xbe3e4904	-0.18582541
209	0xbe7282f5	-0.23682769
210	0xbe4e7a7d	-0.20163913
211	0x40008a12	2.0084271
212	0xbbd5c099	-0.0065232036
213	0xbd3ec8f0	-0.046578348
214	0xbc7baefd	-0.015361545
215	0xbe815bfa	-0.25265485
216	0x3e263eba	0.16234866
217	0x3df7d1a8	0.12100536
218	0xbd8895b3	-0.06669178
219	0xbe477be0	-0.19480848
220	0xbdb9d575	-0.09073917
221	0xbbc6c85f	-0.0060663666
222	0xbaafaa21	-0.0013402143
223	0x3c9133d4	0.017724909
224	0xbc07216e	-0.008247716
225	0xbef115b6	-0.47086877
226	0x3f226706	0.6343845
227	0xbe195bf0	-0.14976478
228	0xbec12f3d	-0.37731352
229	0x3f9b22ac	1.2119956
230	0xbf4fa39d	-0.8110903
231	0x3d17c22e	0.03705042
232	0x3f5ed144	0.87038064
233	0xbf94d411	-1.1627218
234	0x3dde876b	0.10865673
235	0x3e30229e	0.17200705
236	0xbee5ad6f	-0.44858882
237	0x3ec3d519	0.38248518
238	0x3dfcd0ce	0.12344514
239	0xbc7faf00	-0.015605688
240	0xbdc240eb	-0.09485038
241	0x3bc4f600	0.006010771
242	0x3e3463fc	0.17616266
243	0xbcf5ca18	-0.030003592
244	0xbf37edcc	-0.71847224
245	0x3eed5ab9	0.46358278
246	0x3eedb51b	0.46427235
247	0xbe625305	-0.22101982
248	0xbef831a9	-0.48475388
249	0x3e2f4b40	0.1711855
250	0x3eceb57c	0.40372837
251	0xbdb1195c	-0.08647415
252	0xbd2abd39	-0.041684363
253	0xbd20b544	-0.03923537
254	0x3d7d4650	0.061834633
255	0xbc54ff4b	-0.01300032

model.0.bias f4 [64]
0	0xbf52e241	-0.82376486
1	0xbcfd86c7	-0.030948056
2	0xbdcaa16d	-0.09894071
3	0xbedc1644	-0.42985737
4	0xbdff6ee4	-0.124723226
5	0xbe35d894	-0.17758399
6	0xbf1805fc	-0.5938413
7	0xbebb0a1d	-0.36531153
8	0xbed90158	-0.42383838
9	0xbc0f22d9	-0.008736336
10	0xbd2340e7	-0.039856818
11	0xbf4692ab	-0.7756755
12	0xbd96a113	-0.07354941
13	0xbf20a6ce	-0.62754524
14	0x3b161a25	0.0022903767
15	0xbd6d661b	-0.057958703
16	0xbe382d83	-0.17986111
17	0xbf15f5f5	-0.58578426
18	0xbebe39ba	-0.37153417
19	0xbced66e3	-0.028979724
20	0xbce8e4bf	-0.028429387
21	0xbe91f112	-0.28504235
22	0xbd0d1a83	-0.03444911
23	0xbf220578	-0.63289595
24	0xbd0ca4b9	-0.03433678
25	0xbe17a05e	-0.14807269
26	0xbebda9d6	-0.37043637
27	0xbe0835fd	-0.13301845
28	0xbed3ec83	-0.41391382
29	0xbd687ea0	-0.056761384
30	0x3c685ee3	0.014182779
31	0xbf544dba	-0.829311
32	0xbf06f50a	-0.5271765
33	0xbd0e56ed	-0.034750868
34	0xbec7f585	-0.39054504
35	0xbf879a9b	-1.0594057
36	0xbf04d637	-0.51889366
37	0xbe9b86e0	-0.3037634
38	0xbe8938a8	-0.26801038
39	0xbec6f3d5	-0.38857904
40	0xbd861e4f	-0.0654875
41	0xbc592aec	-0.013254862
42	0xbf1b6c2f	-0.6071195
43	0xbf0def47	-0.55443233
44	0xbcd408e8	-0.025883153
45	0xbe9e9396	-0.30971974
46	0xbd6ba0e5	-0.057526488
47	0xbe9b1589	-0.30289868
48	0xbeafce89	-0.3433726
49	0xbe423327	-0.18964826
50	0xbd78d516	-0.06075009
51	0xbeb28c91	-0.3487287
52	0xbef6f966	-0.4823715
53	0xbe98005c	-0.29687774
54	0xbd26fc25	-0.040767808
55	0xbeac2193	-0.33619365
56	0xbf4092f4	-0.7522423
57	0xbf03eb33	-0.5153076
58	0xbf45521f	-0.7707843
59	0xbe93ddf3	-0.2888027
60	0xbe039122	-0.12848333
61	0xbea43e89	-0.3207896
62	0xbecb705c	-0.3973416
63	0xbed59d2b	-0.41721472

model.3.weight f4 [128, 64, 4, 4]
0	0xbf2bbded	-0.6708668
1	0xbbdc6633	-0.0067260503
2	0xbd972906	-0.073808715
3	0x3f041b5e	0.5160426
4	0xbf613eab	-0.8798625
5	0x3ef16633	0.47148284
6	0x3eb49efc	0.35277545
7	0x3e21d785	0.1580487
8	0xbeca4853	-0.39508304
9	0x3f1c905f	0.6115779
10	0xbce3da26	-0.027813982
11	0x3c29b73a	0.010358626
12	0xbe0f1c90	-0.1397574
13	0xbeba69c5	-0.3640882
14	0xbcaf9fbc	-0.021438472
15	0x3e7e36f9	0.24825658
16	0x3eb6e204	0.3571931
17	0xbe698ec0	-0.22808361
18	0xbf219585	-0.63118774
19	0xbf57e094	-0.84327054
20	0x3e2ce691	0.16884829
21	0x3d97cd19	0.07412166
22	0xbeafcd02	-0.34336096
23	0xbe8be529	-0.27323273
24	0xbe68a3d4	-0.22718745
25	0x3ee6b64e	0.45060962
26	0xbc16a465	-0.009194468
27	0xbe237fff	-0.15966795
28	0xbdf57d98	-0.11986846
29	0xbe9c530a	-0.30532104
30	0x3e2986d1	0.16555335
31	0x3de5447e	0.111947045
32	0xbd9d0cc4	-0.076684505
33	0x3eaa26b7	0.33232662
34	0x3eae4cd0	0.34042978
35	0xbf3a23ca	-0.7271086
36	0xbd79b7d2	-0.06096632
37	0xbe222253	-0.15833406
38	0xbe54ccf4	-0.20781308
39	0xbeae832e	-0.34084457
40	0x3ea44cac	0.32089746
41	0x3e35a16b	0.17737357
42	0xbe30c5d8	-0.17262971
43	0x3ee7c4ae	0.45267242
44	0x3eca43f5	0.39504972
45	0xbe72bde1	-0.23705246
46	0x3e2f14f1	0.17097832
47	0xbda41bb4	-0.080130965
48	0x3e1f8e48	0.1558162
49	0xbddc1c7b	-0.1074762
50	0x3de9f508	0.11423689
51	0xbf06a32e	-0.5259274
52	0x3ea79c4d	0.32736436
53	0xbeff8fb0	-0.49914312
54	0xbe4741b6	-0.1945866
55	0xbdef2409	-0.11676795
56	0xbeca49df	-0.39509484
57	0xbf30bb73	-0.69036025
58	0x3dcc39b1	0.09971941
59	0xbea0ef7a	-0.31432706
60	0x3ea873d6	0.32900876
61	0x3e52b701	0.20577623
62	0xbe8067fd	-0.25079337
63	0xbd3a44b0	-0.04547566
64	0xbf6af203	-0.9177553
65	0x3e73c61b	0.2380604
66	0x3e8f29d0	0.27961588
67	0xbefd4ed2	-0.49474198
68	0x3e914147	0.28370115
69	0xbe591ce7	-0.21202432
70	0xbf971e10	-1.1806049
71	0xbe9771cc	-0.29579008
72	0x3f1dc835	0.61633617
73	0xbf2cee3d	-0.6755102
74	0x3e27e4e6	0.16395912
75	0x3f1ede29	0.6205774
76	0x3e7f0ec4	0.24907976
77	0xbf0eaf06	-0.55735815
78	0x3f02688c	0.50940776
79	0x3f5e6983	0.8687975
80	0xbe9b2de4	-0.3030845
81	0x3c30e14b	0.0107959015
82	0x3eaa8f38	0.33312392
83	0xbe80c129	-0.2514737
84	0xbf447e6d	-0.7675541
85	0x3eb62fa3	0.3558322
86	0xbeb46ad1	-0.35237744
87	0x3d86a3d1	0.06574214
88	0x3ee70d3e	0.4512729
89	0x3dd5d369	0.10440714
90	0x3e3adea0	0.18248987
91	0xbdd2df71	-0.10296524
92	0xbdcb6a1f	-0.0993235
93	0xbe91fc74	-0.2851292
94	0x3f847344	1.0347676
95	0xbf16b9ba	-0.58877146
96	0x3f2e1519	0.6800094
97	0xbf454558	-0.77058935
98	0x3eabc424	0.3354808
99	0x3edf94ed	0.4366831
100	0x3dfeabb5	0.12435094
101	0x3eb668fe	0.35626978
102	0xbcac8e9c	-0.021064095
103	0x3e9c8785	0.30572143
104	0x3f4ffba4	0.8124335
105	0xbe8d5c7c	-0.27609622
106	0x3cfde097	0.030990882
107	0xbbaac851	-0.005211868
108	0x3ef42567	0.47684786
109	0xbeeb5a64	-0.459674
110	0xbf1326fd	-0.57481366
111	0xbe8ae257	-0.2712581
112	0x3ee6484c	0.44977033
113	0x3eef2a0b	0.46711764
114	0xbf4e542a	-0.80597174
115	0x3f79ec56	0.97626245
116	0xbd7bc97e	-0.061471455
117	0xbf1e01ad	-0.6172131
118	0xbede633b	-0.43435082
119	0xbf074230	-0.5283537
120	0xbe886df8	-0.266464
121	0xbca58da6	-0.020209145
122	0x3d72eaaa	0.059305824
123	0xbe8140ba	-0.25244695
124	0xbdeafac1	-0.11473609
125	0xbd18b26b	-0.037279528
126	0x3e32fd06	0.17479333
127	0x3d04c6f9	0.032416318
128	0x3d0b5076	0.03401228
129	0xbe6b83d6	-0.2299951
130	0xbf61fc12	-0.88275254
131	0xbee20c2d	-0.44149914
132	0xbeac3484	-0.33633816
133	0x3f1b9c38	0.60785246
134	0xbeb7ca9e	-0.35896772
135	0xbea2f971	-0.31830934
136	0xbf296973	-0.6617653
137	0xbe731281	-0.23737527
138	0xbd657ac9	-0.0560253
139	0xbe57e614	-0.21083862
140	0x3ef02703	0.46904764
141	0xbe5a5a7f	-0.21323584
142	0xbf224d6a	-0.63399374
143	0x3ed10ee7	0.40831682
144	0xbf123dbf	-0.5712547
145	0x3f5897a1	0.8460637
146	0xbe24820d	-0.16065235
147	0xbf266a8f	-0.65006346
148	0xbf4e100a	-0.80493224
149	0x3da0df53	0.07855096
150	0xbf0378cf	-0.51356214
151	0xbf5ed3f0	-0.8704214
152	0xbec2887d	-0.37994757
153	0x3ecb8246	0.39747828
154	0xbd141a3a	-0.036157824
155	0x3d9b703f	0.075897686
156	0x3ee68fa4	0.45031464
157	0x3f13eec3	0.57786196
158	0xbf1bbb65	-0.60832816
159	0xbf05a192	-0.5219966
160	0x3f20d45c	0.62824035
161	0x3c102bb4	0.008799482
162	0xbdd6fb73	-0.10497179
163	0xbebb9a9f	-0.36641404
164	0xbd2e10f3	-0.042496633
165	0xbcdf57f0	-0.027263612
166	0x3f3bc555	0.7334798
167	0x3eb32423	0.34988508
168	0xbe51ee4c	-0.2050106
169	0xbf0542b1	-0.5205489
170	0x3c27b40d	0.010235799
171	0x3f2f9d5b	0.6859948
172	0xbf53d9ee	-0.8275441
173	0x3e9b22dc	0.30300033
174	0xbe937484	-0.28799832
175	0x3f013b75	0.5048135
176	0xbe279a04	-0.16367346
177	0xbf0d5299	-0.5520416
178	0xbe5037dc	-0.20333809
179	0x3e5b1d0b	0.21397798
180	0xbe9af37d	-0.30263892
181	0xbd510e21	-0.051038865
182	0x3de81807	0.11332708
183	0x3e4f97e3	0.20272784
184	0xbf2d5bf1	-0.67718416
185	0xbf139bbf	-0.57659525
186	0xbec946e7	-0.39311907
187	0xbf1b9dd5	-0.6078771
188	0xbf4ef7c9	-0.8084684
189	0xbed9b93e	-0.4252414
190	0xbe85b943	-0.26117906
191	0xbee38fd2	-0.44445664
192	0x3ed3a3df	0.4133596
193	0xbc25dd5c	-0.010123577
194	0xbebb8bc9	-0.36630085
195	0xbf35be52	-0.7099353
196	0x3e2a47c0	0.16628933
197	0xbdac3f69	-0.08410532
198	0xbf6f1f6d	-0.93407327
199	0x3d83f00d	0.064422704
200	0xbf538c9e	-0.8263644
201	0xbe494348	-0.19654572
202	0x3cd8859c	0.026430897
203	0xbd5ddc38	-0.054165095
204	0xbbb90def	-0.005647413
205	0xbe09f721	-0.13473178
206	0xbe5306ff	-0.20608138
207	0x3ef9bd26	0.4877712
208	0x3df7439a	0.12073441
209	0xbe8c2dbb	-0.2737864
210	0xbe89e761	-0.2693434
211	0xbf1c4c1e	-0.61053646
212	0x3e3358c5	0.17514332
213	0xbe2be8c3	-0.1678801
214	0xbf09717b	-0.5368878
215	0xbe1333b8	-0.14375198
216	0xbdbbcdbf	-0.09170102
217	0xbe41dd94	-0.18932182
218	0xbeb59ed8	-0.3547275
219	0xbe38693a	-0.18008891
220	0x3e68023d	0.22657104
221	0x3f2daec6	0.6784481
222	0xbe6edd3e	-0.23326585
223	0xbefacb3a	-0.48983175
224	0x3e75370a	0.23946777
225	0x3f5ce0fa	0.86280787
226	0xbf07ccfa	-0.53047144
227	0xbfc3e85a	-1.5305283
228	0xbd22a48c	-0.039707705
229	0xbd3195cf	-0.04335576
230	0xbee65cfa	-0.4499281
231	0x3ebac3be	0.36477464
232	0xbf0858be	-0.5326041
233	0x3f149dfd	0.5805357
234	0x3e42cf06	0.19024286
235	0x3f5fc1e4	0.8740523
236	0xbdf251fa	-0.11832042
237	0xbe833083	-0.2562295
238	0xbe9b1b57	-0.30294296
239	0x3ecb0a30	0.3965621
240	0x3f2210bc	0.63306785
241	0x3e45c25d	0.19312425
242	0x3f1ce7c0	0.6129112
243	0xbe7035c2	-0.23458007
244	0x3e841c1f	0.25802705
245	0x3d7bae07	0.061445262
246	0x3e5f2961	0.21793129
247	0xbc7b6c92	-0.015345709
248	0x3ead50d2	0.33850724
249	0x3dbe8b40	0.093039036
250	0xbe9b08ed	-0.30280247
251	0x3c958e22	0.01825625
252	0xbe8e53f6	-0.27798432
253	0xbd9ec378	-0.077521265
254	0xbe8d8b3a	-0.27645284
255	0xbf0ca108	-0.54933214

model.3.bias f4 [128]
0	0x3cc68805	0.024234781
1	0xbc59b481	-0.013287664
2	0xbdd352bb	-0.10318514
3	0xbcea0804	-0.028568275
4	0xbcb73b7c	-0.022367232
5	0x3c6358e3	0.013876173
6	0x3d54874f	0.051886853
7	0xbd2722f3	-0.040804815
8	0x3de86452	0.113472596
9	0x3d3bb0f2	0.045823045
10	0x3d94f8d2	0.07274021
11	0x3c586092	0.013206618
12	0x3e19e8ee	0.15030262
13	0xbc8ee6a3	-0.01744396
14	0x3c686281	0.014183641
15	0x3e79fd67	0.24413072
16	0x3e3222d2	0.17396095
17	0xbd64eca9	-0.05588976
18	0x3e53473f	0.20632647
19	0x3c55edc4	0.013057176
20	0xbd7a04a7	-0.061039593
21	0xbd011775	-0.03151651
22	0xbd79a9d0	-0.06095296
23	0xbd602c1b	-0.054729562
24	0x3e43aca7	0.1910883
25	0xbcb92f44	-0.022605546
26	0xbd20f794	-0.03929861
27	0x3d662b9a	0.056193925
28	0x3c80d787	0.015727771
29	0xbc851ae0	-0.016248167
30	0xbd2052c9	-0.03914145
31	0x3e86a924	0.2630092
32	0x3db2c27b	0.087285005
33	0xbbcc8ae1	-0.0062421416
34	0xbde574cc	-0.11203918
35	0x3dad22d1	0.08453906
36	0xbcac26ee	-0.021014657
37	0x3d2894e4	0.04115762
38	0xbd22f44c	-0.03978376
39	0x3e1f4e07	0.15557109
40	0x3def501b	0.11685201
41	0xbdd7f353	-0.10544457
42	0xbc6dae95	-0.014506956
43	0x3d9f0074	0.07763758
44	0x3c3a0f5e	0.011356203
45	0xbd0b0acc	-0.033945844
46	0x3e27ffd0	0.16406178
47	0xbd649fa0	-0.055816293
48	0x3c84571f	0.016154824
49	0x3dba1f9e	0.09088062
50	0xbd8d8ccc	-0.069116205
51	0xbdc66c9b	-0.096886836
52	0xbd07afbd	-0.03312658
53	0xbdcc69f4	-0.099811465
54	0x3db80077	0.08984464
55	0x3d71b57b	0.059010964
56	0xbd6d6e02	-0.05796624
57	0xbde1dfe1	-0.1102903
58	0xbd1bab4e	-0.038005166
59	0x3df44c9f	0.11928677
60	0x3e0fc1a0	0.14038706
61	0xbe3147f5	-0.17312606
62	0x3c18a62b	0.009316961
63	0x3c71e338	0.014763646
64	0xbd284fa9	-0.041091595
65	0x3d90c751	0.070692666
66	0x3b5a7004	0.0033330927
67	0xbd824126	-0.06360082
68	0xbcda17a3	-0.026622599
69	0xbd1312d1	-0.035906617
70	0xbd80e49e	-0.06293605
71	0xbec9ba4f	-0.39399955
72	0x3ced7ade	0.028989252
73	0x3d087bae	0.033321075
74	0x3c0b01cb	0.008484314
75	0x3c01ca6c	0.007921796
76	0xbc729b70	-0.014807567
77	0xbc82b98b	-0.015957614
78	0xbdbcbd6b	-0.09215816
79	0xbdbfca57	-0.09364765
80	0xbdf8f0ba	-0.1215529
81	0xbd8df7aa	-0.06932004
82	0xbdd86278	-0.105656564
83	0x3e08a0cd	0.1334259
84	0x3dae6a2f	0.08516347
85	0x3d890b50	0.06691611
86	0xbdc37384	-0.09543517
87	0xbd7f70f3	-0.062363576
88	0x3dc6c595	0.097056545
89	0x3de0be85	0.10973839
90	0x3eaf0935	0.34186712
91	0xbdc28ae5	-0.09499148
92	0x3e6a8e23	0.22905783
93	0x3e727553	0.23677568
94	0x3e80cdcd	0.25157014
95	0x3b63e5e3	0.0034774474
96	0x3e771bb7	0.24131666
97	0xbd83049c	-0.063973635
98	0xbc9c5913	-0.019085443
99	0x3d8017b8	0.06254524
100	0xbd5250f5	-0.051346738
101	0x3de28ce3	0.11062028
102	0xbcf253b5	-0.02958093
103	0x3deecbdb	0.11659976
104	0xbddf6644	-0.109081775
105	0xbd53cd69	-0.051709566
106	0x3e053539	0.13008584
107	0xbcb49b98	-0.02204685
108	0x3d0c39e3	0.034234893
109	0xbde82f9e	-0.11337207
110	0xbda5499f	-0.08070683
111	0xbd902392	-0.070380345
112	0x3da85d90	0.08220971
113	0x3e80f728	0.25188565
114	0xbd994cb6	-0.074853346
115	0xbb10ecc6	-0.0022113784
116	0x3e4c3e7d	0.19945712
117	0xbd005801	-0.031333927
118	0x3d8c00d9	0.06836099
119	0xbaf66636	-0.0018798772
120	0x3d7bf14f	0.061509427
121	0x3e97de69	0.29661873
122	0x3d95b63b	0.07310148
123	0x3d73f780	0.059562206
124	0xbcb15caf	-0.02165064
125	0xbad0cf0f	-0.0015930849
126	0x3d9d2f91	0.07675088
127	0xbbdd06ec	-0.00674521

model.4.weight f4 [128]
0	0x3e284696	0.16433176
1	0x3e1fd827	0.156098
2	0x3e728269	0.2368256
3	0x3e52e413	0.20594816
4	0x3e1c88bd	0.15286537
5	0x3e1947fa	0.14968863
6	0x3e95cd1f	0.29258057
7	0x3e6a8750	0.2290318
8	0x3ec47734	0.38372195
9	0x3f295873	0.6615059
10	0x3e94bfb3	0.29052505
11	0x3e4034a5	0.18770082
12	0x3eb5d2d5	0.35512415
13	0x3e3f9678	0.18709743
14	0x3f324feb	0.69653195
15	0x3ee4e5c5	0.4470655
16	0x3f0872e9	0.5330034
17	0x3e0e6d41	0.13908865
18	0x3ecfe9c5	0.4060804
19	0x3e25fa37	0.1620873
20	0x3e9f1087	0.31067297
21	0x3e80f6cc	0.2518829
22	0x3edbfd68	0.4296677
23	0x3e1d6763	0.1537147
24	0x3defc52d	0.1170753
25	0x3e37160a	0.17879501
26	0x3e64a89c	0.22329944
27	0x3ecc92bf	0.39955708
28	0x3edd3a5b	0.43208584
29	0x3ea55fef	0.32299754
30	0x3e4ff7f3	0.20309429
31	0x3ecd7ee0	0.4013586
32	0x3e649080	0.22320747
33	0x3e28e790	0.16494584
34	0x3ed502f6	0.41603822
35	0x3e53e5f6	0.20693192
36	0x3e140fc4	0.14459139
37	0x3e4429a8	0.19156516
38	0x3e1aab67	0.15104447
39	0x3e409a2a	0.18808809
40	0x3f3a39f3	0.72744673
41	0x3e6cd447	0.23127852
42	0x3e994e72	0.29942662
43	0x3e2782be	0.16358468
44	0x3e23e877	0.16006647
45	0x3e190160	0.14941931
46	0x3ebd5403	0.36978158
47	0x3eaf9db7	0.34300014
48	0x3e520d8d	0.20512982
49	0x3f48b20b	0.7839667
50	0x3e57a30a	0.21058288
51	0x3e5f7a29	0.21823944
52	0x3e649b73	0.22324924
53	0x3ea441ae	0.3208136
54	0x3e26478f	0.16238235
55	0x3ec95e51	0.3932977
56	0x3e25b300	0.16181564
57	0x3e205195	0.15656121
58	0x3e96faa2	0.29488093
59	0x3ec6b653	0.38810977
60	0x3f70f594	0.9412472
61	0x3e2b0445	0.16700847
62	0x3e54825f	0.20752858
63	0x3eaf6a69	0.34260872
64	0x3e27f76b	0.16402976
65	0x3e26810c	0.16260165
66	0x3e30c857	0.17263924
67	0x3e30b8b8	0.17257965
68	0x3ed81e69	0.422107
69	0x3e5e1ad0	0.21689916
70	0x3df160b5	0.117860235
71	0x3f2e79d3	0.6815464
72	0x3e1a767b	0.15084259
73	0x3e2468e2	0.16055635
74	0x3e2283f1	0.15870644
75	0x3e17752e	0.14790794
76	0x3f07a43f	0.52984995
77	0x3e95f20d	0.29286233
78	0x3ecf6359	0.40505484
79	0x3e1676a7	0.146937
80	0x3e1b693c	0.15176862
81	0x3e772c1d	0.24137922
82	0x3e2cd037	0.16876303
83	0x3eb8546f	0.36001918
84	0x3e4202c2	0.18946365
85	0x3f66709d	0.90015584
86	0x3ea5dd35	0.3239533
87	0x3e861080	0.26184464
88	0x3ebb02ea	0.3652566
89	0x3e3f1ac4	0.18662554
90	0x3ed74cd9	0.42050818
91	0x3e074cf6	0.13212952
92	0x3f110106	0.56642187
93	0x3ee544bb	0.44779
94	0x3f0de3ec	0.55425906
95	0x3e594714	0.2121852
96	0x3ee886b4	0.4541527
97	0x3e3583fc	0.1772613
98	0x3e487deb	0.19579284
99	0x3e01f6ed	0.12691851
100	0x3ea92405	0.33035293
101	0x3e896a84	0.26839077
102	0x3e1ae36e	0.1512582
103	0x3ec33a75	0.38130537
104	0x3e1a4b53	0.15067796
105	0x3eac2b65	0.33626857
106	0x3f06778e	0.52526176
107	0x3e2f21f0	0.1710279
108	0x3e1e5291	0.15461184
109	0x3ebaed3f	0.3650913
110	0x3e713030	0.23553538
111	0x3ee85bdf	0.45382592
112	0x3dfec073	0.124390505
113	0x3e46233c	0.19349378
114	0x3e1170fb	0.14203255
115	0x3e0e1314	0.13874465
116	0x3f509505	0.81477386
117	0x3e121e37	0.14269339
118	0x3e6d7f75	0.23193152
119	0x3e519759	0.20467891
120	0x3e7eb495	0.24873574
121	0x3ed0a07e	0.40747446
122	0x3ec802d9	0.39064673
123	0x3e41072a	0.18850389
124	0x3e507584	0.20357329
125	0x3e13732d	0.14399405
126	0x3ef79e8d	0.48363152
127	0x3ead0733	0.33794555

model.4.bias f4 [128]
0	0xbe04f182	-0.12982753
1	0xbdef89b4	-0.11696187
2	0xbe2eeb2d	-0.170819
3	0xbde074da	-0.10959788
4	0xbde53a8e	-0.11192809
5	0xbe0888c6	-0.13333425
6	0xbe5bca34	-0.21463853
7	0xbdf13787	-0.11778169
8	0xbea8e147	-0.32984373
9	0xbed7bbaf	-0.4213538
10	0xbe8735bd	-0.26408187
11	0xbe14a2e6	-0.14515266
12	0xbeb757ad	-0.3580908
13	0xbe21f294	-0.15815192
14	0xbed911fd	-0.42396536
15	0xbf0ea0ac	-0.55713916
16	0xbf2fe911	-0.68715006
17	0xbdbd742e	-0.09250675
18	0xbf092de7	-0.53585666
19	0xbdcbd0a4	-0.099519044
20	0xbe5fb28a	-0.21845451
21	0xbe3c6b91	-0.18400408
22	0xbeb9d9a8	-0.3629887
23	0xbc742ef6	-0.0149037745
24	0xbdad7f2e	-0.08471523
25	0xbe217377	-0.15766703
26	0xbe032612	-0.12807491
27	0xbe5f0ab6	-0.2178143
28	0xbf048512	-0.5176555
29	0xbeeabd02	-0.45847327
30	0xbdf74459	-0.12073583
31	0xbf00d7ef	-0.5032949
32	0xbdf47aed	-0.11937509
33	0xbe0f70b2	-0.14007834
34	0xbf0cbae4	-0.5497267
35	0xbe22c4f5	-0.15895446
36	0xbdd4aa04	-0.103839904
37	0xbe3fe5ce	-0.18740007
38	0xbdf6f8ad	-0.1205915
39	0xbddc9434	-0.10770455
40	0xbe0c79d8	-0.13718355
41	0xbe6e7123	-0.23285346
42	0xbe72181b	-0.23642008
43	0xbe18e3bd	-0.14930625
44	0xbe1e04c8	-0.15431511
45	0xbdd0b56f	-0.10190856
46	0xbef89444	-0.48550618
47	0xbe2d30e1	-0.16913177
48	0xbdf2ac56	-0.11849277
49	0xbd9d5983	-0.07683089
50	0xbe1d93d6	-0.15388426
51	0xbe01b1c1	-0.12665464
52	0xbe5bb3f2	-0.21455362
53	0xbe6dd77c	-0.23226732
54	0xbe1468c1	-0.14493085
55	0xbf017603	-0.50570697
56	0xbe2254cf	-0.15852664
57	0xbd9eb9dd	-0.07750294
58	0xbe59614c	-0.21228522
59	0xbe82d665	-0.25554195
60	0xbcf52853	-0.029926455
61	0xbdeeef3d	-0.11666725
62	0xbe30d5b1	-0.17269017
63	0xbef6ef76	-0.4822957
64	0xbda9b4fa	-0.08286472
65	0xbd899a55	-0.067188896
66	0xbde82b80	-0.11336422
67	0xbe1f0c4d	-0.15532036
68	0xbeadd619	-0.33952406
69	0xbe538c7a	-0.20659056
70	0xbe0a2054	-0.13488895
71	0xbf869be1	-1.051632
72	0xbe19b452	-0.15010193
73	0xbe0ec431	-0.13942029
74	0xbe27c356	-0.16383108
75	0xbe290ad9	-0.16508044
76	0xbf0f2c70	-0.5592718
77	0xbe7e3c5d	-0.24827714
78	0xbea4c5c9	-0.32182148
79	0xbdfd0074	-0.12353602
80	0xbe081d54	-0.13292438
81	0xbe3362bc	-0.17518133
82	0xbdd54a04	-0.10414508
83	0xbee01e92	-0.43773323
84	0xbe1099a0	-0.14121103
85	0xbb21298d	-0.0024591417
86	0xbe71fc49	-0.23631395
87	0xbe7572c3	-0.2396956
88	0xbea8acf6	-0.3294446
89	0xbde56207	-0.11200338
90	0xbf0464b2	-0.5171615
91	0xbd9757c3	-0.07389786
92	0xbf07ca8c	-0.53043437
93	0xbf1d0ce3	-0.6134779
94	0xbea0d3c7	-0.31411573
95	0xbe2f3583	-0.17110257
96	0xbf1b6c2a	-0.6071192
97	0xbdb93133	-0.09042587
98	0xbe89d113	-0.26917323
99	0xbdd5ddee	-0.1044272
100	0xbed9b7ba	-0.42522985
101	0xbe3e05b5	-0.18556865
102	0xbe11d1ae	-0.14240143
103	0xbec3dc24	-0.3825389
104	0xbdefe115	-0.11712853
105	0xbe86ee8e	-0.26353878
106	0xbec16c66	-0.37778014
107	0xbe1bab27	-0.15202008
108	0xbdbcab98	-0.092124164
109	0xbec6984d	-0.3878807
110	0xbe58a028	-0.21154845
111	0xbef6800d	-0.4814457
112	0xbdc1374e	-0.09434377
113	0xbd9df253	-0.07712235
114	0xbdacf500	-0.084451675
115	0xbe11ab7d	-0.14225574
116	0xbe2abf47	-0.16674529
117	0xbde33dee	-0.110957965
118	0xbe05d9e0	-0.13071394
119	0xbe298121	-0.16553165
120	0xbe20e520	-0.15712404
121	0xbf0fc018	-0.56152487
122	0xbebf17f8	-0.37322974
123	0xbdb5c206	-0.08874898
124	0xbe0995d6	-0.13436064
125	0xbdaea95e	-0.08528398
126	0xbeacea4f	-0.33772513
127	0xbe9d9358	-0.30776477

model.4.running_mean f4 [128]
0	0x3f6efb3a	0.9335209
1	0x3f4cc13b	0.79982346
2	0xbfd97c87	-1.6991128
3	0xbfb3422e	-1.4004571
4	0x3d9c0b6b	0.07619365
5	0x3eb0f00d	0.34558144
6	0xc0037353	-2.0539138
7	0xbfe37112	-1.7768881
8	0x3f621443	0.88312167
9	0xc0582254	-3.3770952
10	0x3fec41ed	1.8457619
11	0xbfb9edc5	-1.4525687
12	0x3f1f4871	0.6221991
13	0x3fec14be	1.844383
14	0xbf407152	-0.75172913
15	0xc06e0e79	-3.7196333
16	0xc04401da	-3.062613
17	0xbec2cca3	-0.3804675
18	0xc058a5f4	-3.385129
19	0x3fef756d	1.870771
20	0xc08a4916	-4.3214216
21	0xbfe46daa	-1.7845967
22	0xbf71ce83	-0.94455737
23	0xbe4def72	-0.20110872
24	0xbf41bc06	-0.75677526
25	0x3f0a1762	0.5394193
26	0xc049659a	-3.1468263
27	0xbf7bd8f5	-0.98377925
28	0x4029e8d4	2.6548357
29	0xbff4af52	-1.9116004
30	0x3f8ce906	1.1008613
31	0xc0bba2c9	-5.863621
32	0xbfbf2996	-1.4934566
33	0x3f6c37ac	0.9227245
34	0xc06fa62f	-3.744518
35	0xbfdada81	-1.7097932
36	0x3fa8b822	1.3181193
37	0x3f592bde	0.8483256
38	0xbd8d350b	-0.06894883
39	0xc047137d	-3.1105645
40	0xbff5edaa	-1.9213154
41	0xbf89d875	-1.0769182
42	0x3fd4e2ec	1.6631751
43	0xbed3fe9a	-0.41405183
44	0x3fcceef7	1.6010426
45	0xbe8fe68d	-0.28105584
46	0xc07ec9aa	-3.9810586
47	0xbfe31323	-1.7740215
48	0x3e873997	0.26411125
49	0x3faee3de	1.366329
50	0x403cfa25	2.9527676
51	0x400b3b5a	2.1754975
52	0xbf3d8c7b	-0.7404248
53	0xc03769c1	-2.8658297
54	0xc0110f19	-2.2665465
55	0xc0120f72	-2.2821927
56	0x3fc0012a	1.5000355
57	0x3f5a36db	0.8523995
58	0xbfed318d	-1.8530747
59	0x3e985d4d	0.29758683
60	0x3f017e3b	0.5058324
61	0xc01b344c	-2.425067
62	0xbf91fb62	-1.1404841
63	0xc06c26ca	-3.6898675
64	0x3d05e19a	0.032685854
65	0x3f7513cc	0.9573333
66	0x3fb8188a	1.4382489
67	0xbdabe1a0	-0.08392644
68	0xc0bd29a3	-5.9113326
69	0x3f84a6db	1.036342
70	0x3f85a392	1.0440543
71	0xc00d78e9	-2.2105048
72	0x400b9754	2.1811113
73	0x3fd2c89d	1.6467472
74	0xbe053cb9	-0.13011445
75	0xbdc707ce	-0.097182855
76	0x3de6baa8	0.112660706
77	0xbf87980a	-1.0593274
78	0xc044428b	-3.0665615
79	0x3f56c728	0.8389764
80	0xbfded5bb	-1.7408975
81	0x3f0c18f0	0.5472555
82	0xbf28b49b	-0.6590058
83	0xbe1cae6c	-0.15300912
84	0x3db13030	0.08651769
85	0xbfe0b7fa	-1.7556145
86	0xbff24767	-1.892804
87	0x3f41a0ff	0.75636286
88	0xbe30aa23	-0.17252402
89	0x3eaf9cc9	0.34299305
90	0xc013dd91	-2.3103983
91	0xbe250f01	-0.16119005
92	0xc0b894a6	-5.7681456
93	0xc0cab83f	-6.334991
94	0x3e5584b0	0.20851398
95	0x4022904f	2.540058
96	0xc0bfdd7e	-5.9957876
97	0x400441a5	2.0665066
98	0x3f3bf0f0	0.73414516
99	0xbf6064d5	-0.8765386
100	0xbfed1182	-1.8520968
101	0xc0127d6a	-2.2889047
102	0x403927f8	2.8930645
103	0xbe15c25e	-0.14624926
104	0x400b9e15	2.1815236
105	0x3f1f3239	0.6218601
106	0xc090820d	-4.5158753
107	0x3f88d1e8	1.0689058
108	0x3fe3cabe	1.7796247
109	0xc0a44011	-5.1328206
110	0xc0008b86	-2.0085158
111	0x402c3ce3	2.6912162
112	0x4008ed90	2.1394997
113	0xbfc78e26	-1.5590255
114	0x40018a04	2.0240488
115	0x3fc1050b	1.5079664
116	0xbfc3607c	-1.526382
117	0xbf112dfb	-0.56710786
118	0xbffa696a	-1.956342
119	0x3deebc6c	0.11657032
120	0xbfaf4e84	-1.3695836
121	0xc0ac10ac	-5.377035
122	0xc028ab10	-2.6354408
123	0x40871792	4.221627
124	0x402f258e	2.7366672
125	0xbe98d856	-0.2985255
126	0xc01ccf0a	-2.4501367
127	0x3e58975a	0.21151486

model.4.running_var f4 [128]
0	0x41cd9092	25.695591
1	0x41dc4084	27.531502
2	0x41f9beff	31.21826
3	0x4201d050	32.45343
4	0x41d698a4	26.824532
5	0x41c20766	24.253613
6	0x4281c176	64.87785
7	0x4211e087	36.469265
8	0x4216e854	37.726883
9	0x430aab0f	138.6682
10	0x4201b797	32.429287
11	0x42373739	45.80393
12	0x41deac04	27.833992
13	0x41f1c923	30.223211
14	0x42e0d627	112.41827
15	0x4220e412	40.222725
16	0x41d44990	26.53592
17	0x41ce92c8	25.82167
18	0x41ebf402	29.494144
19	0x41c46e58	24.553879
20	0x424a9508	50.64554
21	0x41e185f1	28.190401
22	0x42015df2	32.341743
23	0x425b6988	54.853058
24	0x41c919e1	25.137636
25	0x41fa06c8	31.253311
26	0x4240929e	48.14318
27	0x42c9f4f5	100.97843
28	0x41eba5ab	29.455893
29	0x418782d9	16.93889
30	0x423770cb	45.86015
31	0x42088f38	34.139862
32	0x421ca225	39.158344
33	0x41e96d39	29.178331
34	0x41beeca1	23.865541
35	0x41dc8cc0	27.568726
36	0x41d27dda	26.311451
37	0x41d5f0fa	26.742664
38	0x41d5a2f4	26.704567
39	0x41e4fbe8	28.623001
40	0x430f2065	143.12654
41	0x41c50e66	24.63203
42	0x422ba0c2	42.90699
43	0x41ba903f	23.320433
44	0x41db2a9d	27.395807
45	0x41cca17a	25.578846
46	0x41d872e5	27.0561
47	0x425ef9b3	55.743847
48	0x420ebe83	35.686047
49	0x436e2ac7	238.1671
50	0x4228df6a	42.218178
51	0x41c7f4cb	24.994528
52	0x41b0a83a	22.082142
53	0x42488d32	50.137886
54	0x42374eeb	45.82707
55	0x41ced2bb	25.852896
56	0x41cdcc40	25.724731
57	0x41c71819	24.886766
58	0x41ffc235	31.969828
59	0x4255d4a5	53.45766
60	0x43a1e03b	323.7518
61	0x41a63d79	20.780016
62	0x420b1faf	34.78094
63	0x41c03936	24.027935
64	0x42040758	33.00717
65	0x41bee604	23.862312
66	0x41f72755	30.894205
67	0x41da3066	27.273632
68	0x420bfb20	34.99524
69	0x41bc36fe	23.526852
70	0x41df21a9	27.891436
71	0x4213db00	36.963867
72	0x41e253f2	28.290989
73	0x41be6ae0	23.802185
74	0x41fe13c7	31.759657
75	0x41dec223	27.844793
76	0x42484e10	50.076233
77	0x41fe531e	31.790585
78	0x4275813c	61.376205
79	0x41b6814b	22.813131
80	0x41e31fb6	28.390484
81	0x41e587d8	28.69133
82	0x41fedbd2	31.857334
83	0x41b3f384	22.493904
84	0x421d2884	39.289566
85	0x43c896c3	401.17783
86	0x4257c2d2	53.940254
87	0x41f81886	31.011974
88	0x42150969	37.25919
89	0x41ea5ede	29.296322
90	0x41c0b6cd	24.089258
91	0x41a7a86f	20.957243
92	0x4291c3e1	72.882576
93	0x41f1942d	30.197351
94	0x42a6474b	83.139244
95	0x42027c36	32.6213
96	0x41e23bcd	28.2792
97	0x41ce4230	25.782318
98	0x421fb19c	39.923447
99	0x4198b5b6	19.088726
100	0x418c920e	17.571316
101	0x4222585c	40.58629
102	0x41bb50ce	23.414455
103	0x42a6a3f5	83.32023
104	0x41c28cd5	24.318766
105	0x423eed65	47.73183
106	0x4260e446	56.222923
107	0x41c68af3	24.817846
108	0x41ca5e34	25.295998
109	0x41c2dfc3	24.359259
110	0x41fc78cf	31.558989
111	0x4191ef0a	18.241718
112	0x41b753ad	22.915857
113	0x41da6e7c	27.303947
114	0x41ba50c8	23.289444
115	0x41bf32a7	23.899733
116	0x438fc4d3	287.5377
117	0x419b9119	19.445848
118	0x422e05c6	43.50564
119	0x41c9f412	25.244175
120	0x41d507b5	26.628763
121	0x419b5f45	19.421518
122	0x41a57c23	20.685614
123	0x42402cb3	48.04365
124	0x4234ca94	45.19783
125	0x41f2ca69	30.348833
126	0x42317883	44.367687
127	0x427472d8	61.112152

model.8.weight f4 [1, 6272]
0	0x3e49e4d3	0.19716196
1	0x3eaf5c33	0.3425003
2	0xbe9b4edc	-0.30333602
3	0xbe3c6ab6	-0.18400082
4	0x3d88ee8c	0.06686124
5	0x3ef2ad9f	0.47398087
6	0xbda2c94a	-0.07948549
7	0x3f149811	0.58044535
8	0xbe2b26c6	-0.1671401
9	0x3addf1b7	0.0016932999
10	0x3d9e6254	0.07733598
11	0xbe4af0b3	-0.19818382
12	0x3c981c9b	0.018568328
13	0x3d9d9199	0.07693786
14	0x3eef8e73	0.46788368
15	0x3ee74f7b	0.45177826
16	0x3dcfdae9	0.10149176
17	0xbe359531	-0.17732693
18	0x3f64c37c	0.89360785
19	0x3e55f5f9	0.20894612
20	0xbebd39c2	-0.36958128
21	0x3d9483e3	0.07251718
22	0xbd0e7f25	-0.034789223
23	0xbe4015de	-0.18758342
24	0x3deb4790	0.11488259
25	0xbf1a98fb	-0.6038968
26	0x3e4ef253	0.20209627
27	0xbe192d10	-0.14958596
28	0x3eadf885	0.33978668
29	0x3d89ad83	0.06722548
30	0x3ebccc8d	0.3687481
31	0xbd84f4dd	-0.064920165
32	0xbe00915b	-0.12555449
33	0x3ebb6f9d	0.36608592
34	0x39d3ac95	0.0004037364
35	0x3d3c8184	0.046021953
36	0xbd959a62	-0.07304837
37	0x3c89ed3e	0.016836759
38	0xbe779c6f	-0.24180768
39	0xbe42610c	-0.18982333
40	0x3e2643fd	0.16236873
41	0xbe307156	-0.17230734
42	0x3e371193	0.17877798
43	0xbc359e3a	-0.011085087
44	0x3e1b2bb9	0.15153398
45	0xbd8b5813	-0.06803908
46	0xbd9e9966	-0.07744102
47	0xbdfedea5	-0.1244481
48	0xbebacc08	-0.36483788
49	0x3da8acf5	0.08236114
50	0x3dd4a5df	0.103832
51	0xbc969b38	-0.018384561
52	0xbf440264	-0.7656615
53	0xbe721cd2	-0.23643807
54	0xbdec6418	-0.11542529
55	0x3ddcc7cd	0.107802965
56	0x3dc56d4d	0.09639988
57	0xbedeea4c	-0.4353813
58	0x3d13453c	0.0359547
59	0xbe07e06f	-0.13269208
60	0x3c42a9ff	0.011881351
61	0x3ebefd03	0.37302408
62	0xbc7bb0bc	-0.015361961
63	0x3e86a302	0.2629624
64	0xbd48cae2	-0.04902161
65	0xbec4f06c	-0.38464677
66	0xbf4c286d	-0.79749185
67	0xbf0cbee1	-0.5497876
68	0xbda43c60	-0.08019328
69	0x3f0f512f	0.5598325
70	0x3ea2b866	0.3178131
71	0x3ea8168a	0.32829696
72	0xbe5f87e1	-0.21829177
73	0xbe01ac52	-0.12663391
74	0x3d08cdd9	0.033399437
75	0x3e929ae4	0.28633797
76	0x3ee74a38	0.45173812
77	0x3e01c2f8	0.12672031
78	0x3dfb6379	0.12274832
79	0x3ea876a1	0.32903007
80	0xbc679321	-0.014134199
81	0xbde80fae	-0.11331116
82	0xbe28eb90	-0.1649611
83	0x3ebeddaa	0.3727849
84	0x3ea79601	0.3273163
85	0xbcc852da	-0.02445357
86	0x3df59edf	0.11993193
87	0xbd0be97b	-0.03415821
88	0xbac927ca	-0.0015346941
89	0x3e26cb25	0.16288431
90	0x3e222e62	0.15838006
91	0x3df30298	0.11865729
92	0xbebcc398	-0.36867976
93	0xbe33c059	-0.17553844
94	0x3e6dee30	0.23235393
95	0xbe71f4b6	-0.23628506
96	0xbe629d41	-0.221303
97	0xbe245e59	-0.16051616
98	0xbf15e5ea	-0.58553946
99	0xbec31546	-0.38102168
100	0x3dfe35e7	0.12412625
101	0xbe2e41cd	-0.17017289
102	0xbd166e81	-0.03672648
103	0x3c298574	0.010346759
104	0xbeaf359b	-0.34220585
105	0xbe9dcc4a	-0.30819923
106	0x3db29d8a	0.087214544
107	0xbe95b98a	-0.29243118
108	0x3db1d059	0.08682317
109	0x3d451b3e	0.048121683
110	0xbe724d86	-0.23662385
111	0x3f09a506	0.5376743
112	0xbcbf5ef1	-0.023360701
113	0xbd3a7f45	-0.04553153
114	0xbc7dcd75	-0.015490879
115	0xbdedd344	-0.11612561
116	0xbef92307	-0.48659536
117	0xbe3b9bb0	-0.18321109
118	0x3d5344b2	0.051579185
119	0x3e2d1ecb	0.16906278
120	0x3d038aca	0.03211478
121	0xbc893b11	-0.016751798
122	0x3ec358b5	0.38153616
123	0xbe9b53e4	-0.3033744
124	0xbe6d8f7d	-0.23199268
125	0x3ea76966	0.326976
126	0x3d919764	0.071089536
127	0x3c905364	0.017617889
128	0xbcb40dda	-0.021979261
129	0x3f047fa8	0.5175729
130	0x3da808ff	0.08204841
131	0xbe5a07d2	-0.21292046
132	0x3dbd9b3c	0.09258124
133	0x3d9597b7	0.07304328
134	0xbe3a75d9	-0.18209018
135	0x3eb211e5	0.34779277
136	0x3f0d7829	0.55261475
137	0x3e09214b	0.13391607
138	0x3e003450	0.12519956
139	0x3ece0657	0.40239212
140	0x3e27c26b	0.16382758
141	0x3eafaa8f	0.34309813
142	0x3ecbad47	0.39780638
143	0x3c4ee454	0.01262768
144	0x3e43f9a2	0.19138196
145	0x3dc8ee8e	0.09811126
146	0x3e66430e	0.22486517
147	0xbe3c9fb4	-0.18420297
148	0xbe7bea7f	-0.24601172
149	0xbe7ba7c0	-0.2457571
150	0xbdeeca83	-0.1165972
151	0xbe830455	-0.25589243
152	0xbd3f5c8b	-0.046719115
153	0xbeb8c4a5	-0.36087528
154	0xbd9a2f02	-0.07528497
155	0x3f05efb8	0.52318907
156	0x3ebefc6c	0.37301958
157	0x3ece00c1	0.4023495
158	0x3eb3d616	0.35124272
159	0x3f1600ca	0.58594954
160	0x3bbe01cf	0.0057985554
161	0x3dbbad9c	0.09163973
162	0x3efa64b2	0.4890495
163	0x3e3e3589	0.1857511
164	0x3ec32a10	0.3811803
165	0x3ea07aec	0.31343782
166	0x3f0c92fe	0.5491179
167	0x3e6ccc31	0.23124768
168	0x3e971807	0.2951052
169	0x3e1b3926	0.15158519
170	0x3e8d41e1	0.27589324
171	0x3f104a63	0.56363505
172	0x3de8aaa4	0.11360672
173	0x3ea36954	0.31916296
174	0x3ef8fc1a	0.48629838
175	0x3e770a03	0.24124913
176	0x3c93de60	0.018050373
177	0x3d9b6317	0.07587259
178	0x3d2007bb	0.039069872
179	0xbd86db29	-0.0658477
180	0xbe1d63aa	-0.1537005
181	0x3dde22d8	0.1084649
182	0x3e908e38	0.28233504
183	0x3e436e48	0.19085038
184	0x3e5c1b74	0.21494848
185	0x3bd557fc	0.0065107327
186	0x3e4d1725	0.2002836
187	0x3c09c663	0.0084091155
188	0x3e8d9433	0.2765213
189	0x3d7ab509	0.061207805
190	0xbe0d9b05	-0.13828667
191	0xbdb94fa4	-0.09048393
192	0xbe85189e	-0.25995344
193	0xbd5bb5d7	-0.053640213
194	0xbe5981e7	-0.2124096
195	0x3dd34c81	0.10317326
196	0x3f0fe1d9	0.5620399
197	0xbee6ee62	-0.45103747
198	0xbecce580	-0.40018845
199	0xbf3285b9	-0.69735295
200	0x3c744da7	0.014911092
201	0x3cd0aa4c	0.025471829
202	0xbee7b0bb	-0.45252022
203	0x3f118f36	0.5685915
204	0xbee6c882	-0.4507485
205	0xbe98da3a	-0.29853994
206	0xbea713e0	-0.3263235
207	0xbe099089	-0.13434042
208	0xbe2fedd6	-0.17180571
209	0x3c986bc7	0.01860608
210	0x3e89eef3	0.26940116
211	0xbf11a6a2	-0.56894886
212	0xbe5d4ec4	-0.21612078
213	0xbef78031	-0.4833999
214	0x3daa540e	0.083168134
215	0x3dab88d7	0.083757095
216	0xbd357f90	-0.044311106
217	0x3df34400	0.11878204
218	0xbeab78bc	-0.3349055
219	0xbdb50e61	-0.08840633
220	0xbecc4197	-0.3989379
221	0x3e064711	0.13113047
222	0xbd23eb1a	-0.040019132
223	0x3d86ad57	0.06576031
224	0x3e37503a	0.17901698
225	0xbeb9c84b	-0.36285624
226	0xbc6ae168	-0.014335968
227	0xbe1c2447	-0.15248214
228	0x3e430bf0	0.19047523
229	0x3dd95b62	0.10613133
230	0xbe9901ac	-0.29884088
231	0x3e8c8e0f	0.27452132
232	0xbe1b4667	-0.15163575
233	0x3dbedd70	0.093195796
234	0xbe12606d	-0.14294596
235	0x3e0cb99d	0.13742681
236	0x3e9aa09c	0.3020066
237	0xbec7e88b	-0.39044604
238	0x3eac1144	0.33606923
239	0x3d82571c	0.06364271
240	0x3e5fc281	0.21851541
241	0xbd6e3610	-0.058157027
242	0x3cc236f0	0.023707837
243	0xbb9a49a1	-0.0047084843
244	0xbefce5ad	-0.4939398
245	0x3f3b83e8	0.7324815
246	0x3eefba0b	0.46821627
247	0x3f5e804f	0.86914533
248	0xbe031ed5	-0.1280473
249	0xbda352d5	-0.07974783
250	0x3f83d6f6	1.0299976
251	0x3e470a06	0.19437417
252	0xbdb198c1	-0.086717136
253	0xbc860230	-0.016358465
254	0x3e43bebd	0.1911573
255	0xbed97982	-0.42475516
